Model/buff_leaf_LeNet5_30x30_v7.onnx (onnx, 342272 bytes, 10 tensors)

0.fc1.weight f4 [120, 576]
0	0xba92b0dc	-0.0011191624
1	0xbd25505f	-0.04035985
2	0x3cab6c98	0.020925805
3	0xbd2444dd	-0.040104736
4	0x3cf512a1	0.02991611
5	0xbc2a332f	-0.01038818
6	0xbbdb405c	-0.006691022
7	0xbce383b4	-0.027772762
8	0xbb615153	-0.0034380748
9	0xbd41703b	-0.047226172
10	0x3ce663fc	0.028123848
11	0xbd47a81b	-0.048744302
12	0xbcf27015	-0.02959446
13	0x3c2258e0	0.009908885
14	0x3cec7904	0.028866298
15	0xbb889a13	-0.0041687577
16	0xbbe0905c	-0.0068531465
17	0xbcb93c00	-0.022611618
18	0x3b9124b7	0.0044294256
19	0xbd1742b6	-0.036928855
20	0xbc204ea8	-0.009784378
21	0x3ce557de	0.027996
22	0xbd231510	-0.03981501
23	0x3cb16e84	0.021659143
24	0xbc349178	-0.011021011
25	0xbd0ea6e4	-0.034827128
26	0x3bafe940	0.0053683817
27	0x3c6f3728	0.014600553
28	0x3bc1e236	0.005916859
29	0xbcce147d	-0.025156254
30	0x3d0d30f3	0.03447051
31	0xbcfe3a81	-0.031033756
32	0xbccc33fe	-0.024927136
33	0xbd1025db	-0.03519235
34	0xbd1b632c	-0.037936375
35	0xbb9a5068	-0.004709292
36	0xbd18c8eb	-0.037300985
37	0x3b8753a1	0.0041298424
38	0xbcb1afab	-0.02169021
39	0x3934e6f5	0.00017252176
40	0x3c197031	0.009365127
41	0xbc2fe700	-0.010736227
42	0xbd1b5381	-0.037921432
43	0xb9bee19f	-0.00036407725
44	0x3cb5cfb0	0.02219376
45	0x3c4eef25	0.012630259
46	0x3ba829ce	0.0051319366
47	0xbc60ffc7	-0.013732857
48	0x3b018fdd	0.0019769587
49	0x3c6e86b1	0.01455848
50	0xbbe1cf7b	-0.0068911887
51	0xbc26162c	-0.010137122
52	0x39becbfe	0.0003639161
53	0xbc4bcae5	-0.012438511
54	0xbc69a385	-0.0142601775
55	0x3c2ee84f	0.010675504
56	0x3cc86a2e	0.024464693
57	0xbc67d8f4	-0.014150847
58	0x3cd0ecf5	0.025503615
59	0x3c28675d	0.01027855
60	0x3c9fabe2	0.01949114
61	0xbc2deeaa	-0.010615984
62	0x3c40ccbc	0.0117675625
63	0x3cc5d7db	0.02415078
64	0xbd3e6cb0	-0.04649037
65	0xbd26ec9a	-0.040752985
66	0x3cccc1d5	0.02499477
67	0x3cbdfbce	0.023191359
68	0xbaa41430	-0.0012518223
69	0x3ce5d283	0.028054481
70	0xbc9341f9	-0.017975794
71	0xbc1fb799	-0.009748363
72	0x3cf514de	0.029917177
73	0xbcd75b15	-0.026288548
74	0x3c89d565	0.016825387
75	0xbbc80d27	-0.0061050835
76	0x3ca154de	0.019693788
77	0xbc1f7889	-0.009733328
78	0xba7a47d3	-0.0009547446
79	0xbb102079	-0.0021992011
80	0xbd228b73	-0.03968377
81	0x3b94061e	0.004517331
82	0xbc8b372d	-0.016994083
83	0xbcdeabe7	-0.027181579
84	0x3cdd8b6e	0.027044024
85	0xbd43001a	-0.04760752
86	0xbd2d4ee6	-0.04231157
87	0xbd36c595	-0.044622023
88	0x3a81f990	0.0009916294
89	0x3c816433	0.015794849
90	0xbd27a4c4	-0.040928617
91	0xbc9ac7fe	-0.018894192
92	0xbd320eeb	-0.043471258
93	0xbc276c90	-0.010218754
94	0xbbb0b391	-0.0053924997
95	0x3b6b346d	0.0035889402
96	0xbc587c58	-0.01321324
97	0x3c195d65	0.009360646
98	0xbbbb4537	-0.005715038
99	0x3d02e1ab	0.031953495
100	0xbd4426f0	-0.047888696
101	0xbcec0d15	-0.028814832
102	0xbb31ac57	-0.002711078
103	0xbd11bf2c	-0.035582706
104	0x3d03529f	0.032061215
105	0xbc3a5fe0	-0.011375397
106	0x3cb08344	0.021546967
107	0x3cc39475	0.0238745
108	0xbd2f4331	-0.042788688
109	0xbac9112f	-0.0015340204
110	0xbd1fc03f	-0.0390017
111	0xbb2445a9	-0.0025065935
112	0xbcb11e39	-0.021620857
113	0x3cd681dc	0.026184969
114	0x3ce879c3	0.028378373
115	0x3cabfd48	0.020994797
116	0x3b8470f0	0.0040417835
117	0xbc5793bd	-0.013157782
118	0xb90b803d	-0.00013303845
119	0xbd1e7bf2	-0.038692422
120	0xbc11e9ba	-0.008905822
121	0x3cad83b7	0.02118097
122	0xbcddcb60	-0.027074516
123	0x3c785f23	0.015159401
124	0x3cc34066	0.023834419
125	0x3cd5c035	0.026092628
126	0xbc1c2149	-0.00952942
127	0xbd33345a	-0.0437511
128	0x3cbc0777	0.022952778
129	0xbd14de64	-0.0363449
130	0xba092cef	-0.0005232831
131	0xbc10d39c	-0.008839514
132	0x3d0ecf22	0.034865506
133	0x3c581217	0.013187907
134	0xbd19462d	-0.03742044
135	0xbd037c15	-0.032100756
136	0xbd135ec5	-0.03597905
137	0xbd34ebe3	-0.04417027
138	0x39ab41ba	0.00032664632
139	0x3ce4b236	0.027917009
140	0xbcf34854	-0.029697575
141	0x3cab8d9d	0.02094155
142	0xbd40e732	-0.047095485
143	0xbcf0311d	-0.029320294
144	0x3c841fde	0.016128477
145	0x3d090611	0.03345305
146	0x3c17a269	0.00925503
147	0xbce0de67	-0.0274498
148	0xbb632952	-0.003466208
149	0xbbb1ade4	-0.0054223407
150	0xbc9fd75e	-0.019511875
151	0x3cb345cb	0.021883866
152	0x3c5bfbe5	0.013426756
153	0xbc08ef21	-0.008357794
154	0xbce6fee9	-0.028197723
155	0xbd047ffa	-0.03234861
156	0xbba5c596	-0.0050589545
157	0x3c10aaa3	0.008829745
158	0xbd2012d5	-0.03908046
159	0xbcc30f17	-0.023810906
160	0xbcee9f40	-0.02912867
161	0x3c876498	0.016527459
162	0x3c336f55	0.010951837
163	0xbc0a1a41	-0.008429111
164	0xbd443c7b	-0.04790924
165	0xbae56d4b	-0.0017503885
166	0x3c5b2e73	0.013377774
167	0xbc8f4a15	-0.01749138
168	0xbc835d1d	-0.01603561
169	0xbcf81f74	-0.030288436
170	0xbd37e674	-0.04489751
171	0x3bb5cca2	0.005548076
172	0xbd2b9d25	-0.04189791
173	0xbd47094b	-0.048592847
174	0x3d0830cb	0.033249658
175	0x3c5e47b9	0.013566905
176	0xbd3c9446	-0.046039842
177	0x3c9a7237	0.01885329
178	0x3c2f5738	0.010701947
179	0xbcdfbac7	-0.027310742
180	0xbd399ec7	-0.045317437
181	0x3c628b53	0.013827163
182	0x3c9c81d1	0.01910487
183	0xbd1dd8d8	-0.038536876
184	0x3cb50eef	0.022101847
185	0xbcb7c1f9	-0.02243136
186	0xbc02a07f	-0.007972836
187	0xbce5bbd5	-0.028043667
188	0x3ce286b2	0.027652118
189	0xbd1c8dc1	-0.038221125
190	0xbb894f6d	-0.0041903765
191	0xbcb788b0	-0.022404045
192	0x3c16eb16	0.009211322
193	0x3d246cdf	0.04014289
194	0xbcd814d2	-0.026377115
195	0xbcdbefbe	-0.026847716
196	0xb98de9e6	-0.00027067884
197	0x3ce87c85	0.028379688
198	0x3c31815c	0.010834064
199	0xbc7cd9a8	-0.015432753
200	0xbd127dc4	-0.03576447
201	0xbcdc5bf5	-0.026899317
202	0x3d065875	0.032799203
203	0xbd00b7f6	-0.03142544
204	0x3ce242a9	0.027619677
205	0xbb715560	-0.003682457
206	0xbc9faa35	-0.01949034
207	0xbd2d6f56	-0.042342506
208	0x3a98904d	0.0011639685
209	0x38366fdb	4.3496355e-05
210	0xbc6ee022	-0.014579805
211	0x3cb5b727	0.02218206
212	0x3b1f7fdf	0.0024337692
213	0x3be484d6	0.006973843
214	0x3cb94671	0.022616597
215	0x3cdd448b	0.027010223
216	0xbc4597fa	-0.01206016
217	0x3c62c0c5	0.013839905
218	0x3ccb996c	0.02485343
219	0xbd0a39af	-0.033746418
220	0xbd0169a8	-0.031594902
221	0xba93fac0	-0.0011289939
222	0x3b618fca	0.003441798
223	0xbc744cc2	-0.014910879
224	0xbd1d6832	-0.038429447
225	0xbcceb51e	-0.025232848
226	0x3c0e25a3	0.0086759655
227	0xbb02850a	-0.0019915723
228	0x3ce8e5b9	0.028429853
229	0xbd0cd6ad	-0.03438442
230	0xb95302b3	-0.00020123534
231	0xbc0c3f45	-0.0085600065
232	0x3cfddfac	0.030990444
233	0xbbafdb79	-0.0053667394
234	0xbd36423f	-0.04449677
235	0x3ca5e684	0.02025152
236	0xbcf365ad	-0.029711569
237	0xbd07cf31	-0.033156577
238	0xbd0cc5a7	-0.034368183
239	0xbc044b49	-0.00807459
240	0xbc5140dd	-0.012771812
241	0x3cb05940	0.021526933
242	0x3c0cdd4a	0.008597681
243	0x3b948339	0.0045322445
244	0x3aa0769f	0.0012242383
245	0xbc974016	-0.018463176
246	0xbcedf636	-0.029048067
247	0x3cdd451d	0.027010495
248	0xbcfcc6cb	-0.03085651
249	0xbcaafbcc	-0.02087202
250	0x3cb1d1a1	0.021706404
251	0xbcb5d6aa	-0.022197086
252	0x3d091266	0.03346481
253	0x3d3c7b6d	0.046016145
254	0x3c90cbbf	0.017675279
255	0xbb5c9bbf	-0.0033662168

0.fc1.bias f4 [120]
0	0x3cdf4148	0.027252808
1	0xbbe17396	-0.006880234
2	0xbd1e2f6d	-0.038619447
3	0xbce77252	-0.028252754
4	0xbc886848	-0.016651288
5	0x3d0f2830	0.034950435
6	0xbcdb8864	-0.026798435
7	0xbbc667e8	-0.006054867
8	0xbc75d9e6	-0.015005564
9	0x3d0e685c	0.034767494
10	0x3c902f54	0.017600693
11	0xbce52c93	-0.027975356
12	0xbc9a1767	-0.018809987
13	0xbc4431e8	-0.011974789
14	0xbc95d5ee	-0.018290486
15	0xbbb605e4	-0.0055549014
16	0x3c77105f	0.015079587
17	0xbca5c170	-0.02023384
18	0xbc378d3b	-0.011203106
19	0xbc0b24f2	-0.008492695
20	0x3cd53cfa	0.026030052
21	0x3c4f4091	0.012649671
22	0x3cc0c85b	0.023533037
23	0xbc122a64	-0.0089212395
24	0x3cfc794b	0.030819556
25	0x3cf6fa9c	0.030148797
26	0x3d3653d3	0.044513535
27	0xbba37577	-0.004988368
28	0xbd223a0f	-0.03960615
29	0x3d189d66	0.03725948
30	0xbc1f63f2	-0.009728419
31	0x3c0c3985	0.008558636
32	0xbc5ece3b	-0.013598974
33	0xbbe36c01	-0.0069403653
34	0xbc990eef	-0.018683879
35	0xbb0f0ea3	-0.0021828793
36	0xbc71c510	-0.014756456
37	0x3cec3054	0.028831638
38	0xbceae5d5	-0.028674046
39	0x3bcc7e70	0.0062406585
40	0x3cf4621e	0.029831942
41	0x3c013426	0.007885968
42	0xbd14ad42	-0.036298044
43	0xbb21b519	-0.0024674593
44	0x3aff4361	0.0019475037
45	0x3cb84942	0.02249587
46	0x3c9be8a6	0.019031834
47	0xbbc21978	-0.0059234463
48	0xbcc9c246	-0.02462877
49	0xbd222e87	-0.039595153
50	0xbd1f6598	-0.038915247
51	0x3c1dcf14	0.009631891
52	0x3d271a29	0.040796433
53	0x3cffac22	0.031210009
54	0xbc152770	-0.009103641
55	0xbcb6d040	-0.022316098
56	0x3caf9ec2	0.021438006
57	0x3ca2b89b	0.019863417
58	0xbba65b46	-0.0050767986
59	0xbd3fa7e1	-0.04679096
60	0x3c3b4da6	0.011432087
61	0x3d1c1a5a	0.03811107
62	0xbc91d2c9	-0.017800706
63	0xbcde47fb	-0.027133932
64	0xbb7e0ee7	-0.0038766207
65	0x3d4ac9ff	0.049509045
66	0x3be6a7bc	0.0070390385
67	0xbcacf7fb	-0.02111434
68	0x3c874e17	0.016516728
69	0x3bf15113	0.007364401
70	0x3a7e0b48	0.0009691012
71	0xbbac06ce	-0.0052498346
72	0xb9095e42	-0.00013100452
73	0x3c0014db	0.007817472
74	0x3c546a53	0.012964803
75	0xbc7f185b	-0.015569772
76	0xbd14dcab	-0.036343258
77	0xbd333e66	-0.04376068
78	0xbc8fe793	-0.017566478
79	0xbca610c5	-0.020271668
80	0x3c88ca66	0.016698074
81	0xbc8ac3e6	-0.016939115
82	0xbc0908b2	-0.0083638895
83	0x3d3e19c7	0.046411302
84	0xbbc3d93d	-0.0059768246
85	0x3b976408	0.004620079
86	0x3b265e77	0.0025385895
87	0x3ca02464	0.019548602
88	0x3c190a61	0.009340853
89	0x3cfe6304	0.031053074
90	0x3c075bd4	0.00826164
91	0xbb975743	-0.0046185567
92	0xbd027de7	-0.03185835
93	0xbcae4dde	-0.021277364
94	0x3cec1c9a	0.028822232
95	0xbd2cc2b5	-0.042177875
96	0xbc9b9047	-0.018989695
97	0xbb07b223	-0.0020705543
98	0x3ca4e2ae	0.02012762
99	0x3cd2a109	0.025711553
100	0xbbc32bee	-0.0059561646
101	0xbd185f05	-0.037199993
102	0xbceeba38	-0.02914153
103	0xbc890a77	-0.016728623
104	0xba47df7b	-0.0007624549
105	0xbc8ffc7b	-0.017576447
106	0x3ce388cd	0.027775193
107	0xbcc4998b	-0.023998996
108	0xbc8793c4	-0.016549952
109	0xbd01cf7b	-0.03169201
110	0x3ce8defe	0.028426643
111	0x3ca873d5	0.020563046
112	0xbb7036ad	-0.0036653683
113	0x3d289e3f	0.04116654
114	0x3c0bb143	0.008526149
115	0xbcb9d737	-0.02268563
116	0x3c4ce069	0.012504675
117	0x3c03615c	0.008018818
118	0xbc4e1302	-0.012577774
119	0x3d1e7447	0.03868511

0.fc2.weight f4 [84, 120]
0	0x3d90afeb	0.07064804
1	0xbbfe2f8a	-0.007757132
2	0xbb3be1f5	-0.0028668616
3	0xbdc33b72	-0.09532823
4	0x3bf9d244	0.0076239426
5	0x3ca96c80	0.02068162
6	0x3db0f5d6	0.086406395
7	0x3d968f5d	0.07351563
8	0x3d97f097	0.07418936
9	0xbd4f7ca6	-0.050655983
10	0x3caab79c	0.020839505
11	0x3d93ba06	0.072132155
12	0xbbc61fdb	-0.006046278
13	0x3db66df6	0.08907692
14	0x3af1d0e4	0.0018449095
15	0x3d9e0f92	0.077178136
16	0x3d1f9465	0.03895988
17	0xbd8b447b	-0.06800171
18	0xbd89d245	-0.06729559
19	0x3d9c865a	0.07642813
20	0x3db714ea	0.08939536
21	0xbd3aa2b2	-0.045565315
22	0xbdaacc2a	-0.083397225
23	0xbd8641aa	-0.06555493
24	0xbd92d5f2	-0.07169713
25	0xbc363ceb	-0.011122922
26	0x3cbeb919	0.02328162
27	0x3b8ac3f4	0.004234785
28	0x3da516ac	0.08060965
29	0x3d367bed	0.04455178
30	0xbd9f9dec	-0.07793793
31	0xbd929673	-0.07157602
32	0x3d82e6ce	0.06391679
33	0x3db5b803	0.08872988
34	0x3d0f6060	0.03500402
35	0xbc888158	-0.016663238
36	0xbd958f75	-0.07302753
37	0xbcfe7b8b	-0.03106477
38	0xbc1ff27f	-0.009762405
39	0xbd960cdf	-0.07326674
40	0x3d439e93	0.04775865
41	0xbcd1993c	-0.025585763
42	0xbd92ecf1	-0.07174099
43	0xbb964daf	-0.0045868973
44	0x3da28b14	0.07936683
45	0xbcd44b23	-0.025914734
46	0x3d51c228	0.051210552
47	0xbd6b744d	-0.05748396
48	0xbd845585	-0.06461624
49	0x3d0996ab	0.033590954
50	0xbc21eff0	-0.009883866
51	0x3c5d5eb5	0.013511349
52	0x3d54ca20	0.051950574
53	0x3da0340b	0.078224264
54	0xbd3305e3	-0.043706786
55	0xbd939660	-0.07206416
56	0x3d10f398	0.03538856
57	0xbc9f7578	-0.019465193
58	0xbd86d66d	-0.06583867
59	0xbcd21b2d	-0.025647724
60	0x3cf65d90	0.030073911
61	0xbd9bd7ef	-0.076095454
62	0x3d9d09d6	0.07667892
63	0xbdc6f960	-0.09715533
64	0xbd218696	-0.03943499
65	0xbdc2845b	-0.09497901
66	0x3c8e1bd3	0.017347252
67	0xbd3d4eec	-0.046217844
68	0xbbe1c4e5	-0.0068899267
69	0x3a6a2b5a	0.00089328515
70	0x3da8e5a7	0.08246928
71	0x3d74cc28	0.05976501
72	0xbd46c48f	-0.048527297
73	0xbc761201	-0.015018941
74	0x3c19b999	0.009382629
75	0x3d6f6ff6	0.058456384
76	0x3ce7d0fd	0.028297896
77	0x3d65e02b	0.056121986
78	0x3c9e1261	0.019295873
79	0x3d093181	0.033494476
80	0x3d737ccd	0.05944519
81	0x3d9430b7	0.07235854
82	0xbc4f5eb0	-0.012656853
83	0x3d427580	0.047475338
84	0x3d829bae	0.0637735
85	0xbd12856c	-0.035771772
86	0xbc41477c	-0.011796828
87	0xbcffe14c	-0.03123536
88	0xbc84f8b5	-0.016231874
89	0xbd86c81b	-0.06581136
90	0x3d934b01	0.0719204
91	0x3cf3f5f8	0.029780373
92	0x3b87c192	0.0041429484
93	0xbd75238a	-0.059848346
94	0x3d659e8e	0.056059413
95	0x3da6e532	0.08149184
96	0xbcf175e6	-0.029475164
97	0xbdc039d2	-0.09386028
98	0xbb4acbe0	-0.0030944273
99	0x3d06c9d4	0.032907322
100	0xbd7f683e	-0.062355272
101	0x3c989a3c	0.018628232
102	0xbc664274	-0.01405393
103	0x3c32fcd5	0.010924538
104	0xbdabde95	-0.083920635
105	0x3cf1f46c	0.029535495
106	0xbd4624dd	-0.048375
107	0x3c80fa59	0.015744375
108	0xbd880817	-0.06642168
109	0x3c08e627	0.008355654
110	0x3ce9d457	0.028543634
111	0x3d24b65f	0.040212985
112	0x3b909820	0.004412666
113	0xbdbe769d	-0.092999674
114	0xbda4ab98	-0.080405414
115	0x3d64543a	0.055744387
116	0x3b4e2e03	0.003146053
117	0xbd54c39b	-0.051944356
118	0x3cb3865d	0.021914655
119	0xbb0caea4	-0.0021466399
120	0x3da32b75	0.07967273
121	0x3d8be050	0.068298936
122	0xbc9a0356	-0.018800419
123	0x3d0bc059	0.034118984
124	0xbd85cb5c	-0.06532928
125	0xbc3c1b88	-0.011481173
126	0x3ceed1f4	0.029152848
127	0x3dc5fcf3	0.09667387
128	0xbd1f11ef	-0.038835462
129	0x3db5a88a	0.08870037
130	0x3db959fe	0.09050368
131	0x3cd74f4c	0.026282929
132	0x3bc59072	0.006029182
133	0xbc9e37db	-0.019313743
134	0x3d4c35a2	0.049855836
135	0xbb5cd1e3	-0.0033694438
136	0xbd9943f4	-0.07483664
137	0xbbf7c779	-0.007561621
138	0x3dbb4a62	0.09145047
139	0x3c4e4be0	0.012591332
140	0x3d45bd3d	0.048276175
141	0x3d1f9764	0.038962737
142	0xbc97af77	-0.018516285
143	0x3d5b8122	0.053589948
144	0x3d21efbc	0.03953527
145	0x3bdc9fde	0.006732925
146	0xbccf93ff	-0.025339125
147	0xbd54d13e	-0.05195736
148	0xbd1213f7	-0.03566357
149	0xbd8cb99d	-0.068713404
150	0xbbbc4fef	-0.0057468335
151	0xbd83d306	-0.06436734
152	0x3d99075c	0.07472107
153	0xbd1e482b	-0.038643043
154	0xbd2b6055	-0.041839916
155	0xbdb333ef	-0.0875014
156	0xbb2ff3ee	-0.0026848274
157	0xbcf2b3c3	-0.029626733
158	0xba18be80	-0.00058267266
159	0x3d47c3eb	0.048770826
160	0xbd874802	-0.06605531
161	0x3b9d6e51	0.0048044105
162	0xbce8a6a4	-0.028399773
163	0x3da79b6f	0.081839435
164	0x3d8b177a	0.06791587
165	0xbdcc7467	-0.099831395
166	0x3c2a7cd7	0.010405741
167	0x3c2da4d6	0.010598382
168	0xbc25afc6	-0.010112708
169	0xbdb9f0af	-0.0907911
170	0xbdae5907	-0.08513074
171	0xbd4bdb4c	-0.049769685
172	0x3d3446d8	0.044012874
173	0x3d9857d4	0.07438627
174	0x3b8316b7	0.0040005106
175	0xbb79fc99	-0.0038144945
176	0x3d49ed7c	0.04929875
177	0xbc99ba70	-0.018765658
178	0xbd7185d6	-0.058965527
179	0xbd1c15ce	-0.038106732
180	0x3d54f7ed	0.051994253
181	0x3d609d04	0.05483724
182	0x3cdb9590	0.026804715
183	0xbd6855c2	-0.05672241
184	0x3bc2a31d	0.005939855
185	0x3bdeddd7	0.0068013477
186	0x3d90b079	0.070649095
187	0xbd89187e	-0.06694125
188	0xbd730140	-0.059327364
189	0xbd864b4b	-0.0655733
190	0xbd07d7c4	-0.033164755
191	0xbd744059	-0.05963168
192	0x3d272ca7	0.04081407
193	0x3d996ba7	0.07491236
194	0x3c6cc775	0.014451851
195	0x3da23e43	0.07922032
196	0x3d4fed6b	0.05076353
197	0xbd02c511	-0.03192622
198	0xbc029945	-0.007971113
199	0xbc3a1128	-0.011356629
200	0xbdcb1d36	-0.09917681
201	0xbda3ddfb	-0.08001324
202	0x3d93ad41	0.0721078
203	0x3ca1623d	0.019700164
204	0x3d36bd76	0.044614278
205	0xbb81c9ef	-0.00396084
206	0x3c94ae7d	0.018149609
207	0xbd9cba6b	-0.07652744
208	0x3c6a7d2e	0.014312072
209	0x3d26d39e	0.040729158
210	0x3d4ccd2b	0.05000035
211	0xbd9eb82d	-0.077499725
212	0x3dcf89ae	0.10133682
213	0xbcaa2af4	-0.020772435
214	0x3c817ff2	0.01580808
215	0xbda0a9b5	-0.07844869
216	0x3d582583	0.05277015
217	0x3d84d98b	0.064868055
218	0x3d8770b5	0.06613294
219	0x3d7acb0c	0.061228797
220	0xbda8a506	-0.08234601
221	0xbd9ddaf7	-0.0770778
222	0x3d8e21d4	0.06940046
223	0xbdaae20e	-0.08343898
224	0xbda429c4	-0.08015779
225	0x3c18fa4f	0.009337022
226	0x3d8cc6fc	0.06873891
227	0x3c72d591	0.014821426
228	0xbc70ce02	-0.014697554
229	0xbd9b000d	-0.07568369
230	0x3d7f0479	0.062260125
231	0xbd83e374	-0.064398676
232	0xbc815bf0	-0.01579091
233	0x3c6d5d74	0.014487613
234	0xbcaa8737	-0.020816429
235	0x3c0cbe50	0.008590296
236	0x3bfaa777	0.007649358
237	0xbdafbc58	-0.085808456
238	0xbd1cbbe4	-0.038265124
239	0xbd12d04e	-0.035843186
240	0x3d6f8340	0.05847478
241	0x3be83a90	0.0070870593
242	0x3c6e33e8	0.014538743
243	0xbdb3c236	-0.08777277
244	0xbb9f0100	-0.004852414
245	0xbd9fc944	-0.0780206
246	0xbdab072a	-0.08350976
247	0xbc6c9928	-0.014440812
248	0x3d4bd7dc	0.049766406
249	0x3d8de63c	0.06928679
250	0x3c87531c	0.016519122
251	0xbce1cc04	-0.027563103
252	0xbd9ca035	-0.076477446
253	0x3da310e6	0.079622075
254	0xbd617a50	-0.055048287
255	0x3bb5e800	0.005551338

0.fc2.bias f4 [84]
0	0xbc504ee2	-0.01271412
1	0xbd9202b1	-0.071294196
2	0x3c4b8400	0.012421608
3	0x3d10ba9c	0.035334215
4	0x3d908a81	0.070576675
5	0xbc7641ab	-0.015030305
6	0x3db647ea	0.08900435
7	0xbd2ee439	-0.04269812
8	0x3dc67c4a	0.09691675
9	0xbd6bcca9	-0.057568226
10	0x3dbdf1c2	0.09274627
11	0xbd71a8c0	-0.058998823
12	0xbd97df40	-0.074156284
13	0xbbd21c3b	-0.0064120567
14	0xbce2f0cb	-0.02770271
15	0x3d1ebb70	0.038752973
16	0xbdae50c8	-0.085115016
17	0xbda307dd	-0.07960484
18	0xbd7ada80	-0.061243534
19	0xbd84afba	-0.0647883
20	0x3d9b0d12	0.07570852
21	0x3d3584d8	0.044316143
22	0x3da40c5c	0.0801017
23	0xbd12cb04	-0.035838142
24	0x3c8d648b	0.017259857
25	0x3c3b7cac	0.011443298
26	0xbd75db91	-0.060023848
27	0xbc4fb181	-0.012676598
28	0xbda87c73	-0.08226862
29	0xbce0390e	-0.027370956
30	0xbd190381	-0.037356857
31	0xbceb8315	-0.028749028
32	0xbd9091db	-0.0705907
33	0x3c530026	0.012878453
34	0x3c811784	0.015758283
35	0x3d744625	0.059637208
36	0xbd984e58	-0.07436818
37	0x3b90c973	0.004418546
38	0xbdb23a27	-0.08702498
39	0x3c2b138d	0.010441673
40	0x3d8201f8	0.06348032
41	0xbd4e3f17	-0.050353136
42	0x3a8f3bc0	0.0010927841
43	0xbd998e6c	-0.07497868
44	0x3d9da2e6	0.07697086
45	0xbd2335de	-0.039846294
46	0x3d74df4a	0.059783258
47	0xbce3f453	-0.027826464
48	0xbcc514a0	-0.024057686
49	0xbd714fc9	-0.05891398
50	0xbd455ecf	-0.04818612
51	0x3d6d2399	0.057895277
52	0x3c8d39bd	0.017239446
53	0x3d9f9a34	0.07793084
54	0xbbc2c171	-0.00594347
55	0xbce09acc	-0.027417563
56	0x3db968fa	0.09053226
57	0xbd7ab193	-0.061204504
58	0xbd8319c6	-0.064014
59	0xbdb89809	-0.090133734
60	0xbcda517f	-0.026650188
61	0xbd2a5445	-0.041584272
62	0x3da7e73c	0.08198401
63	0x3be14eb9	0.0068758396
64	0x3d799630	0.060934246
65	0x3c17978f	0.009252443
66	0xbdad82d2	-0.084722176
67	0xbcbda9d6	-0.023152273
68	0x3be73166	0.0070554493
69	0x3b148060	0.0022659525
70	0xbc127d52	-0.0089410115
71	0x3b8e61a9	0.004345138
72	0x3d8824c7	0.0664764
73	0x3dea6dbe	0.11446713
74	0x3c1172e5	0.008877491
75	0x3cfb6af5	0.03069065
76	0x3d938d13	0.07204642
77	0xbd26d51c	-0.04073058
78	0xbd9262f7	-0.07147782
79	0xbc59fd8b	-0.013305078
80	0xbd10244d	-0.03519087
81	0x3ce6955c	0.028147392
82	0x3d3419ee	0.04397004
83	0x3d5ad803	0.05342866

0.fc3.weight f4 [2, 84]
0	0x3cba5c25	0.022749016
1	0xbd8adeca	-0.06780775
2	0x3d6a23f6	0.0571632
3	0xbb7bc1d1	-0.0038415084
4	0x3d7a64da	0.061131336
5	0xbc81ffba	-0.01586901
6	0xbdcd01e0	-0.10010123
7	0x3da18a7b	0.07887741
8	0x3e0856be	0.1331434
9	0x3cb29b11	0.021802457
10	0x3dba4f6d	0.090971805
11	0x3dd4fea4	0.10400131
12	0x3d161983	0.036645424
13	0x3dc09291	0.09402955
14	0xbda8959f	-0.08231663
15	0xbd5fea32	-0.054666705
16	0x3c3170fa	0.010830158
17	0x3c796b39	0.015223318
18	0xbd0dcf99	-0.03462181
19	0xbd7d2af1	-0.06180853
20	0x3d22e9eb	0.039773863
21	0xbd189090	-0.03724724
22	0xbd4f336c	-0.05058615
23	0x3de2463b	0.11048552
24	0x3e32202b	0.17395084
25	0xbdd15b7c	-0.102225274
26	0xbddb49c9	-0.10707433
27	0xbde2fa87	-0.110829405
28	0xbd3eb2be	-0.04655718
29	0x3d98a5c0	0.07453489
30	0xbc5e2c20	-0.013560325
31	0x3c95bd8f	0.018278865
32	0x3da31fba	0.07965036
33	0xbd341b3c	-0.043971285
34	0xbde87243	-0.11349919
35	0x3da9a787	0.082839064
36	0x3d92498f	0.071429364
37	0x3cbcb944	0.02303756
38	0x3c281fb9	0.0102614695
39	0xbc375120	-0.011188775
40	0xbd18a812	-0.03726966
41	0xbd89a56b	-0.06721004
42	0xbdc6a4a9	-0.09699375
43	0xbdcb3933	-0.09923019
44	0xbcc2cdf2	-0.023779843
45	0x3cd0cd0a	0.025488395
46	0x3d03a3aa	0.032138504
47	0x3cba5c5a	0.022749115
48	0xbd41582b	-0.047203224
49	0x3c811bd1	0.015760334
50	0x3daa3949	0.083117075
51	0x3dc27a54	0.094959885
52	0xbd3f25d8	-0.04666695
53	0xbc530d14	-0.012881536
54	0xbd5bc442	-0.053653963
55	0xbe0172b9	-0.1264142
56	0x3def8313	0.11694922
57	0xbd6cda98	-0.057825655
58	0x3dfd9ae0	0.12383056
59	0x3cfdfd45	0.031004557
60	0xbe033431	-0.12812878
61	0x3d7aa630	0.061193645
62	0xbd842d9a	-0.0645401
63	0x3deb4384	0.11487487
64	0xbdc818db	-0.09770366
65	0x3d9681d6	0.07348983
66	0xbcc94699	-0.024569796
67	0xbc67c440	-0.014145911
68	0x3d7fa34b	0.062411588
69	0x3c862ddc	0.01637929
70	0xbd85060d	-0.06495295
71	0xbc7154a3	-0.014729652
72	0xbd37e1ed	-0.044893194
73	0x3d7bc085	0.061462898
74	0xbd673117	-0.0564433
75	0x3da3d839	0.080002256
76	0xbd9c641c	-0.07636282
77	0x3db98740	0.09059
78	0xbd6c9235	-0.05775662
79	0xbccb2bb6	-0.024801116
80	0xbdcc24f7	-0.09967988
81	0x3dcefec0	0.101071835
82	0xbd93a42f	-0.0720905
83	0x3dcc50c8	0.09976345
84	0xbdac3efa	-0.08410449
85	0xbde6a39b	-0.11261674
86	0x3d5f72c6	0.054552816
87	0x3ba93398	0.005163621
88	0xbd61e718	-0.05515203
89	0x3dc60fb6	0.096709654
90	0xbc8ce7f5	-0.01720045
91	0x3b403794	0.0029330002
92	0x3cb2009c	0.021728806
93	0x3c8f9e16	0.017531436
94	0xbe053c2e	-0.13011238
95	0x3ce7528e	0.028237607
96	0x3cdd6cd3	0.02702943
97	0xbc96727e	-0.018365141
98	0x3d2fdce4	0.042935267
99	0xbd3d0561	-0.046147708
100	0xbcb14321	-0.021638455
101	0x3da10230	0.07861745
102	0x3d6e1de6	0.058133982
103	0x3c1cddc0	0.009574354
104	0xbca233e1	-0.019800128
105	0xbda3ba8f	-0.079945676
106	0x3caabd84	0.020842321
107	0xbc5368ff	-0.012903451
108	0xbe70663a	-0.23476496
109	0x3c559015	0.01303484
110	0xbbbc514f	-0.0057469974
111	0x3da88042	0.08227588
112	0x3d5c7b9e	0.053828828
113	0xbe7320a6	-0.23742923
114	0x3ce63481	0.028101208
115	0xbd0c8037	-0.034301963
116	0x3cf6058d	0.030031944
117	0x3d8c16ec	0.068403095
118	0xbcd54207	-0.02603246
119	0xbd108d57	-0.035291042
120	0xbd598554	-0.053105667
121	0xbd55598f	-0.052087363
122	0x3dc06e11	0.093959935
123	0x3c49f5b1	0.012326644
124	0x3da34f09	0.07974059
125	0x3dd2e2c6	0.1029716
126	0x3ba03860	0.004889533
127	0xbd329076	-0.0435948
128	0x3d853c91	0.06505693
129	0x3cf5b361	0.029992761
130	0x3dbf8840	0.093521595
131	0x3de23edf	0.11047148
132	0x3bc9d920	0.0061599165
133	0x3cb30da3	0.021857088
134	0x3c316a7b	0.01082861
135	0xbd70c4f0	-0.058781564
136	0xbdcc2617	-0.099682026
137	0x3da12fb6	0.07870428
138	0xbb29e752	-0.0025925231
139	0x3df2804f	0.11840879
140	0xbdb5c4b6	-0.0887541
141	0x3dcb0fb8	0.099151075
142	0x3cbea292	0.023270879
143	0x3cf707da	0.030155111
144	0x3dff454b	0.124643885
145	0x3b46da20	0.0030342415
146	0xbdccc18b	-0.09997853
147	0xbd715d59	-0.058926914
148	0x3e056327	0.13026105
149	0xbdffb56b	-0.124857746
150	0xbc237606	-0.009976869
151	0xbdd3611a	-0.10321255
152	0xbdd4c396	-0.103888676
153	0x3d9ddfc7	0.07708698
154	0xbc6dfae0	-0.014525145
155	0xbd350570	-0.04419464
156	0xbdd57fde	-0.10424779
157	0xbdb578f0	-0.088609576
158	0xbd5b0948	-0.05347565
159	0xbc9f455a	-0.01944225
160	0x3daf2e49	0.0855375
161	0xbd10ceb3	-0.035353374
162	0x3d3924c5	0.04520108
163	0x3db3a42f	0.0877155
164	0x3dfc3a18	0.12315768
165	0x3db9c0e3	0.09069993
166	0xbdf68dc6	-0.1203876
167	0xbdb396e5	-0.08769015

0.fc3.bias f4 [2]
0	0x3c512dd6	0.012767276
1	0xbbc03e63	-0.005866812

onnx::Conv_38 f4 [6, 1, 3, 3]
0	0x3f4e69f8	0.80630445
1	0xbf7318fd	-0.94960004
2	0xbf7e4396	-0.9932188
3	0x3f498446	0.7871746
4	0x3f443e39	0.76657444
5	0x3e385928	0.1800276
6	0xbe41068e	-0.18850157
7	0x3e27de7c	0.16393465
8	0xbf8f1bf0	-1.1180401
9	0xbe2fca89	-0.17167105
10	0xbeb635de	-0.35587972
11	0xbeeb3c5e	-0.45944494
12	0xbf13a0cc	-0.5766723
13	0xbf1fe18d	-0.6245354
14	0xbef0ff9c	-0.47070014
15	0x3f2d0a8e	0.6759423
16	0x3d23ad98	0.039960474
17	0x3e38633d	0.18006606
18	0x3f323143	0.6960642
19	0x3ec87946	0.39155024
20	0x3f2a6576	0.6656107
21	0x3ee201ae	0.44141906
22	0xbf3c0e14	-0.7345898
23	0x3ecac28f	0.3960156
24	0x3e83ecbc	0.25766551
25	0x3ebfb906	0.3744585
26	0xbdd7c2b2	-0.10535182
27	0xbec8bf02	-0.39208227
28	0xbee37e0f	-0.44432113
29	0x3f0000e6	0.5000137
30	0x3eee8e22	0.46592814
31	0x3ee1cc0b	0.44100985
32	0x3ebb3a61	0.36567977
33	0x3e9119e1	0.28340057
34	0x3eca6b5d	0.39535037
35	0x3ea031bf	0.31287953
36	0x3ee29417	0.4425361
37	0x3f00a8ff	0.5025787
38	0x3d42715b	0.047471385
39	0x3f3f5710	0.7474222
40	0xbee40a88	-0.44539285
41	0xbe24dd77	-0.16100107
42	0x3ec818b8	0.3908136
43	0x3f16154a	0.58626235
44	0x3dc644f3	0.0968112
45	0xbeaf5e01	-0.34251407
46	0xbcb7df0c	-0.022445224
47	0xbd635457	-0.055500355
48	0x3f1b6ab4	0.6070969
49	0x3e04d281	0.12970926
50	0x3eb5a8ac	0.3548025
51	0x3f0c07aa	0.54699194
52	0x3e061f73	0.13097934
53	0x3f1dd071	0.6164618

onnx::Conv_39 f4 [6]
0	0xbd93f4de	-0.07224439
1	0xbeac220a	-0.3361972
2	0x3efe8e5b	0.49717984
3	0x3ea7b38f	0.3275418
4	0x3edb42a7	0.4282429
5	0x3ea5485a	0.32281762

onnx::Conv_41 f4 [16, 6, 3, 3]
0	0x3e7a6b50	0.24454999
1	0x3e34c106	0.17651758
2	0xbe8af7bb	-0.27142128
3	0xbe896052	-0.268313
4	0x3ec4f309	0.3846667
5	0x3e95494b	0.2915748
6	0x3d2b2e3e	0.041792147
7	0x3d99cad0	0.075093865
8	0x3e52bfb5	0.20580943
9	0x3e98a287	0.298115
10	0xbe9fd0dd	-0.31214038
11	0x3e122e1d	0.14275403
12	0xbe15c2e4	-0.14625126
13	0x3eacce06	0.33750933
14	0x3eb6291c	0.3557824
15	0xbe31a42b	-0.17347781
16	0x3dffafe8	0.12484723
17	0xbeca3cdb	-0.39499554
18	0xbe551bf6	-0.20811448
19	0xbe5a74aa	-0.21333566
20	0xbed19b17	-0.40938637
21	0xbe62bf30	-0.22143245
22	0x3e34933a	0.17634287
23	0xbe07faf9	-0.13279332
24	0x3c925dae	0.017866936
25	0xbe4d91f0	-0.20075202
26	0x3e83f356	0.25771588
27	0x3d93fd9f	0.07226109
28	0xbd40f761	-0.04711092
29	0x3d15ec3c	0.036602244
30	0x3c8af52f	0.016962616
31	0xbe6993e7	-0.22810327
32	0xbe3c364c	-0.18380088
33	0xbe1a21ad	-0.15051909
34	0x3d43606d	0.04769938
35	0xbe9ef5aa	-0.31046802
36	0x3e90c80b	0.2827762
37	0xbea6e668	-0.3259766
38	0xbdf47815	-0.11936966
39	0x3c253691	0.01008381
40	0xbe2c8e84	-0.1685124
41	0x3d8d8238	0.06909603
42	0x3e9517f8	0.2911985
43	0x3e84d0aa	0.25940448
44	0xbbd1c7b2	-0.0064019794
45	0x3e807d3c	0.25095546
46	0x3e8fb89f	0.28070542
47	0xbec93eee	-0.39305824
48	0xbe6b8054	-0.22998172
49	0x3e3773c2	0.17915252
50	0x3e8dcd89	0.27695873
51	0x3e9c0e0a	0.3047946
52	0x3e06c2a9	0.13160194
53	0x3e4f7db9	0.20262803
54	0xbe7238fd	-0.23654552
55	0x3e041b7a	0.12901106
56	0x3e821695	0.25407854
57	0xbcb13bfc	-0.021635048
58	0x3e3d74ba	0.18501559
59	0xbe590217	-0.21192203
60	0xbbc55b2a	-0.0060228305
61	0x3e04cdbf	0.12969111
62	0x3eb69a9f	0.35664842
63	0xbe5f6fe2	-0.21820024
64	0x3e6be1aa	0.23035303
65	0xbe169fda	-0.14709416
66	0xbeb8fa51	-0.36128476
67	0x3ea2ed4b	0.31821665
68	0xbea34011	-0.31884816
69	0xbdd212a8	-0.10257465
70	0x3d7860dc	0.060639247
71	0x3e86d4c1	0.26334193
72	0xbda7d2fb	-0.08194538
73	0x3eb235d7	0.34806702
74	0xbeadbccb	-0.339331
75	0x3cbc3db2	0.022978637
76	0x3e990f45	0.29894462
77	0xbe6dd64b	-0.23226278
78	0x3d14034d	0.03613596
79	0x3e236767	0.15957414
80	0xbbe2c8fe	-0.006920933
81	0x3eb49704	0.35271466
82	0x3e13d5f5	0.14437087
83	0x3e77e97a	0.24210158
84	0x3e5f2d0e	0.21794531
85	0xbeb005c3	-0.34379396
86	0xbeb87428	-0.3602612
87	0x3d42fc89	0.047604118
88	0xbd26b360	-0.04069841
89	0x3df59314	0.119909436
90	0x3eabbc45	0.33542076
91	0xbe9be11d	-0.30445185
92	0x3e8c83c8	0.2744429
93	0xbe8d9942	-0.2765599
94	0x3bba9728	0.0056942888
95	0x3e1a7597	0.1508392
96	0xbea32044	-0.31860554
97	0x3e81ffc1	0.25390437
98	0xbe289919	-0.16464652
99	0x3dc15355	0.094397224
100	0x3d90f9b9	0.07078881
101	0x3dfa860b	0.12232598
102	0xbe985f33	-0.2976013
103	0x3e274461	0.16334678
104	0xbea06464	-0.31326592
105	0xbe2fd076	-0.17169365
106	0x3dc260b4	0.09491101
107	0x3e2de5ed	0.16982241
108	0x3ca3c2e4	0.019990392
109	0x3e9dcb78	0.30819297
110	0xbec96ef3	-0.3934246
111	0xbe9ed5ad	-0.31022397
112	0x3e6176f9	0.2201804
113	0xbec54685	-0.38530365
114	0x3d90a068	0.07061845
115	0xbc7faf34	-0.0156057365
116	0xbec0b012	-0.3763433
117	0xbeb39799	-0.35076597
118	0xbe12583f	-0.14291476
119	0xbde519f9	-0.111865945
120	0x3de30a0c	0.11085901
121	0xbede3a03	-0.43403634
122	0x3e626950	0.22110486
123	0xbddcfdfe	-0.10790633
124	0xbe882aa0	-0.2659502
125	0xbdd0b4aa	-0.10190709
126	0xbce1d229	-0.027566032
127	0x3e70af11	0.23504283
128	0xbe9f85a0	-0.31156635
129	0xbdbcccc9	-0.09218747
130	0xbeccaf2c	-0.39977396
131	0x3cb25a1f	0.021771489
132	0xbdfb7437	-0.122780256
133	0x3e5b752f	0.2143142
134	0x3e632bc9	0.22184671
135	0xbd200b61	-0.03907335
136	0x3e00aa7a	0.12565032
137	0x3e00ad96	0.12566218
138	0x3eb6033c	0.35549343
139	0x3e088dbf	0.13335322
140	0xbe04f6fe	-0.12984845
141	0xbd84faee	-0.064931735
142	0x3e353dc3	0.17699341
143	0x3e8149ab	0.25251517
144	0x3c4dbd3a	0.012557322
145	0x3e82ac8e	0.25522274
146	0x3d24ef40	0.04026723
147	0xbe7c72cc	-0.24653167
148	0xbe53a9fe	-0.20670316
149	0x3e306f18	0.17229879
150	0xbea681eb	-0.32520995
151	0xbeb853bf	-0.36001393
152	0x3e568254	0.20948154
153	0x3e5cecad	0.2157466
154	0x3e9d8f29	0.30773285
155	0x3d48bfd4	0.049011067
156	0xbd23fcc7	-0.04003599
157	0xbe953710	-0.29143572
158	0xbde292de	-0.11063169
159	0xbe91ece8	-0.28501058
160	0x3e9ed8f8	0.3102491
161	0xbe63e276	-0.22254357
162	0x3ef4e57c	0.47831333
163	0x3ec7a7bd	0.38995162
164	0x3e8d88fe	0.2764358
165	0xbca138ab	-0.019680342
166	0xbe6f7535	-0.23384555
167	0x3c66d2f4	0.014088381
168	0xbe7b101b	-0.24517862
169	0xbe2a4ea3	-0.1663156
170	0xbe167370	-0.14692473
171	0xbcfccefa	-0.030860413
172	0x3ec53c62	0.3852263
173	0xbe390f80	-0.18072319
174	0x3ebacf44	0.36486256
175	0xbd928668	-0.07154542
176	0xbe961f4b	-0.2932075
177	0xbedf47bf	-0.43609425
178	0xbd5e522d	-0.054277588
179	0xbe525810	-0.20541406
180	0x3dffde8f	0.124936216
181	0xbec055a4	-0.3756534
182	0xbe59bd4d	-0.21263619
183	0x3e862e40	0.2620716
184	0x3e82fccf	0.25583503
185	0x3e894345	0.26809135
186	0x3c3b84f4	0.011445273
187	0x3ec45a3c	0.38350093
188	0xbdc33f18	-0.095335186
189	0xbddd9dc8	-0.1082111
190	0xbdb8b6b8	-0.09019226
191	0x3d2e07ca	0.042487897
192	0x3e5c9382	0.21540645
193	0x3eabb6ef	0.33538005
194	0x3c8eb615	0.017420808
195	0xbd0bbee6	-0.0341176
196	0xbed82347	-0.42214414
197	0xbe30b3a5	-0.17256029
198	0xbdd79205	-0.10525898
199	0xbda21a3e	-0.079151616
200	0x3b95ea00	0.004575014
201	0x3d803e28	0.06261855
202	0x3e431ecd	0.19054718
203	0x3c2cb9ef	0.010542377
204	0x3e35593c	0.17709821
205	0xbe99c265	-0.30031124
206	0xbe12be7e	-0.1433048
207	0xbeb26ec8	-0.34850144
208	0x3e0aeb54	0.13566333
209	0x3dd55fe2	0.10418679
210	0x3e95c657	0.29252884
211	0x3e8287b6	0.25494164
212	0xbe18894f	-0.14896129
213	0x3e63c69f	0.22243737
214	0xbeadce98	-0.3394668
215	0x3e52f4bf	0.20601176
216	0x3e054e83	0.13018231
217	0x3e4ec409	0.20191969
218	0x3dfc56d1	0.123212464
219	0xbebed9ea	-0.3727563
220	0x3e2d81e7	0.16944085
221	0xbe8b3ee3	-0.27196416
222	0x3d9683aa	0.07349332
223	0x3ed1eb34	0.40999758
224	0x3e114df6	0.14189896
225	0xbe4161db	-0.18884985
226	0xbef8c9b5	-0.4859139
227	0xbee74716	-0.45171422
228	0xbe91405c	-0.28369415
229	0x3eda218c	0.4260372
230	0xbe81d668	-0.2535889
231	0xbd2ee7bc	-0.042701468
232	0xbf1f4f16	-0.6223005
233	0xbe2a34ea	-0.16621748
234	0x3e3ca183	0.18420987
235	0xbefb179f	-0.4904146
236	0xbf0aa4da	-0.54157794
237	0x3e8c9c3b	0.27462944
238	0x3ee640ec	0.44971406
239	0x3e6d2738	0.23159492
240	0xbda86bc5	-0.082236804
241	0xbbaf857d	-0.005356489
242	0xbddd9012	-0.10818495
243	0xbe00f217	-0.1259235
244	0xbe722252	-0.23645905
245	0x3e77c4d5	0.24196179
246	0x3e8086f2	0.25102955
247	0x3df9e02c	0.122009605
248	0xbeefe4c9	-0.46854237
249	0xbeeb67de	-0.45977682
250	0xbee89dd1	-0.45432904
251	0x3e1e01e9	0.15430416
252	0x3bca0820	0.0061655194
253	0x3e4adc39	0.19810571
254	0x3e4a7fe7	0.19775353
255	0xbe2510ab	-0.1611964

onnx::Conv_42 f4 [16]
0	0xbf025b00	-0.50920105
1	0xbf12e21b	-0.5737626
2	0x3fb0982c	1.3796439
3	0xbdc2136d	-0.094763614
4	0x3fe812f2	1.8130782
5	0xbfe7535d	-1.8072315
6	0xbedf877d	-0.43658057
7	0xbedbe456	-0.42947644
8	0xbf3844f2	-0.719802
9	0xbf943972	-1.1580031
10	0xbf483515	-0.78205997
11	0x3f3c35d7	0.73519653
12	0x3f884dd7	1.0648755
13	0x3e27b3dc	0.16377205
14	0x3f7237f1	0.9461661
15	0xbe98d7c4	-0.29852116
