src/Model/buff_R_LeNet5_30x30_v4.onnx (onnx, 342353 bytes, 10 tensors)

0.fc1.weight f4 [120, 576]
000000 6f 25 71 3c 9b c4 09 bd 99 34 2e bd 88 f5 77 bc
       0.0147183975 -0.033634763 -0.04253063 -0.015134223
000010 e4 1f cf bc bb cf f2 3c fd 6d bb 3c 60 d1 2e 3c
       -0.025283761 0.02964007 0.022879595 0.010670036
000020 9f 32 42 bd 8a 4e 27 bd 8d b9 e7 bc df c2 57 bb
       -0.047411557 -0.040846385 -0.02828672 -0.0032922549
000030 73 21 25 bd c0 d2 f2 3b 6d 93 38 3a 7b 1b 19 bd
       -0.040315103 0.0074103773 0.0007041011 -0.037379723
000040 fc c0 ee bc 24 a0 74 3b a9 8d d1 bb e2 37 17 bd
       -0.029144756 0.0037326897 -0.006395061 -0.03691853
000050 83 a6 e0 bc af bb db 3b 6b f9 9d bc 15 6f 3d bc
       -0.027423149 0.0067057232 -0.01928397 -0.011562129
000060 08 b4 45 bd 34 0c 21 bd 96 a9 cb bb e9 9b 3c 3c
       -0.048267394 -0.03931828 -0.0062152846 0.011511781
000070 83 e2 0e bd ee 3e d2 3c 59 31 7e 3c fb f9 25 ba
       -0.034883987 0.025664773 0.015514695 -0.00063315005
000080 a7 c8 34 bd 44 6e 83 bc 34 91 37 b9 fd 79 28 3d
       -0.04413667 -0.01604379 -0.00017506332 0.041131962
000090 a8 5b b0 3c 66 42 f4 3c dc f7 52 bc df 67 24 bc
       0.02152808 0.029816817 -0.012876477 -0.01003453
0000a0 44 44 c3 bc ab 38 95 3c f2 c3 21 b9 b3 40 c8 3c
       -0.023836263 0.018215498 -0.00015427152 0.024444913
0000b0 9a 35 e6 3c e7 30 26 bd 72 f5 36 3c c5 cc 92 3c
       0.028101731 -0.04057398 0.011166917 0.017919907
0000c0 82 97 e7 3c a3 93 26 bd 4d 02 0c bd 88 54 da 3c
       0.028270487 -0.04066814 -0.03418188 0.026651636
0000d0 f0 7b cd bc a3 4e b7 3b 6a 5b 0e bb ed 01 01 3d
       -0.025083512 0.005594091 -0.0021721967 0.031495977
0000e0 52 1f d0 3c 77 de 13 bd e8 5e d1 3c 58 6d 45 bc
       0.02540556 -0.03610083 0.02555795 -0.012049995
0000f0 7c 3c 05 bd 09 d7 ec 3c 06 01 7a 3b 7e ea 9b 3c
       -0.032528386 0.02891113 0.0038147583 0.019032713
000100 59 b6 20 bd 3d 90 9a bb fd f8 c5 bb 03 11 97 3c
       -0.0392364 -0.0047169016 -0.0060416446 0.018440729
000110 80 3b ed bc 09 01 34 bd e1 1a 02 bd 68 ac b9 bc
       -0.028959036 -0.0439463 -0.031763915 -0.022665218
000120 11 b6 95 3c 7a b5 89 3c d0 08 ed 3b 1e 27 e8 bc
       0.018275293 0.016810168 0.0072337165 -0.028338965
000130 79 78 07 3c 8c d3 f2 3c b1 19 df bc f3 3c 2e 3c
       0.008268469 0.029641889 -0.02723393 0.010634649
000140 b9 ef ad bc 9f a7 b2 bc 8c 4d c0 bc 62 2b 20 3c
       -0.021232473 -0.021808444 -0.023474477 0.009775968
000150 61 80 f6 bc e7 80 9d 3c 21 03 e2 3c 22 39 3c 3c
       -0.030090513 0.019226504 0.027589383 0.011488231
000160 51 29 16 bd 8b 4a d5 3c e3 dc 97 bc 0f 9d 4c bd
       -0.036660496 0.026036521 -0.018537944 -0.04995447
000170 e5 fb e4 bb aa b3 de bc 74 5d 94 bb 52 fc 25 bd
       -0.006988036 -0.02718528 -0.004527742 -0.040523835
000180 12 41 d3 3c dd 1e 2a bd ce 16 34 3c c3 36 84 3c
       0.025787864 -0.04153334 0.010991765 0.016139394
000190 4d 9e 78 bc a4 de 37 bd 8e 3b 95 bb 12 b2 b3 3c
       -0.015174461 -0.04489006 -0.0045542186 0.021935496
0001a0 54 bb 6c bc f3 61 0f bd 4f 62 04 3c 88 e2 92 3b
       -0.014448959 -0.03500552 0.008080079 0.004482571
0001b0 00 74 44 3c 19 7c d1 3c 8d 30 19 3c 1a c1 f9 3c
       0.011990547 0.02557187 0.009349954 0.030487586
0001c0 08 71 81 bc 4e b1 66 3c 1b 1d 6e bc a7 7b 53 bc
       -0.015800968 0.014080359 -0.0145333065 -0.012907899
0001d0 7f 6f b5 bb 86 c2 e6 3c 48 70 bb 3a 82 7d c8 3c
       -0.005536973 0.028168928 0.001430043 0.02447391
0001e0 c9 f0 31 3c a7 62 68 3b a4 95 34 bc e4 1a 9f 3c
       0.01086063 0.0035459192 -0.011022005 0.019422002
0001f0 d4 4b 3a bb 0d 32 c8 3c e1 df 06 3c c8 4c f1 3c
       -0.0028426545 0.024437929 0.008232088 0.029455557
000200 1c df 8d 3c 57 a9 bb 3c ae b7 9f bc 24 e5 f8 3c
       0.0173183 0.022907896 -0.019496765 0.0303827
000210 a3 cc 54 bb 07 8e c3 3b 7e 9b 09 bd e1 27 38 bd
       -0.0032470606 0.0059678587 -0.033595555 -0.044959906
000220 d4 05 bc 3c 88 8e d0 3c 37 a2 b3 bc 27 1d 11 bd
       0.022951998 0.02545859 -0.021927936 -0.035428192
000230 60 c5 8e bc e7 c3 f0 3c 28 85 33 bd c7 11 02 3d
       -0.0174281 0.029390289 -0.04382816 0.031755235
000240 22 d6 68 3c 13 1f 92 bc c4 b5 f4 3c bd ed 10 bd
       0.0142112095 -0.017837083 0.029871829 -0.035382975
000250 2f 4a bb 3c a4 65 a4 ba 0a fd e5 bb 98 be 18 3d
       0.022862522 -0.0012542498 -0.00701869 0.03729114
000260 e9 fb 93 3c 07 8d eb bc 4b 0a e5 3b 12 f0 8e 3c
       0.018064456 -0.02875377 0.0069897524 0.017448459
000270 02 3d 24 3c 3b 68 9d bc 65 66 1f bd 77 85 ec bc
       0.010024311 -0.01921474 -0.03891601 -0.028872235
000280 d0 7d 11 bc 3a 87 15 bd 7e 6a 1f bd 23 2e 93 3c
       -0.008880094 -0.036505915 -0.03891992 0.017966336
000290 99 8c 6b ba 46 c5 b6 bc ab 64 64 3c 46 5f 16 bd
       -0.0008985489 -0.022310864 0.013940017 -0.036711954
0002a0 2a 45 0d 3d 70 e1 ef 3c 79 99 9c 3c 49 a9 80 bc
       0.034489788 0.029282302 0.01911615 -0.015705721
0002b0 e1 55 75 3c 44 53 02 3d 56 54 92 3c 34 a0 d2 bc
       0.014974088 0.03181769 0.01786248 -0.025711156
0002c0 3c cb 38 bd 43 b6 89 bc c8 90 1f 3d 42 8c 93 bc
       -0.045115694 -0.016810542 0.038956434 -0.018011216
0002d0 4c 73 e5 3c 72 d3 7c 3c 05 81 f3 bc e9 a9 a7 3c
       0.02800908 0.015431272 -0.029724607 0.020466762
0002e0 b1 58 5a bb 58 ae 3d ba 19 76 78 bb f3 50 66 bc
       -0.0033317024 -0.0007235757 -0.0037912189 -0.014057386
0002f0 b4 97 ef 3c 9d 43 3a bd 7d 93 3c 3c 3e c4 9b 3c
       0.029247142 -0.045474637 0.011509773 0.019014474
000300 bf da 8d 3c 19 ed 9c bc 49 8a 36 bc 7b 12 a5 3a
       0.01731622 -0.019156026 -0.011141368 0.0012594009
000310 7f 5a 50 3c b5 be 8b 3c 0c 28 91 3c 2e 28 04 bd
       0.012716888 0.01705871 0.017719291 -0.03226488
000320 2e f3 d8 3c 59 c1 b0 3c 65 cd cd 3c 54 6f 77 bc
       0.026483145 0.02157657 0.025122354 -0.015102226
000330 3b e0 db bb 51 fb 3a bc 1c e8 5b bc 58 9f 98 3b
       -0.00671008 -0.011412458 -0.013422038 0.004657667
000340 be e3 80 bc 76 c7 a5 ba ff da 28 bd 2b 71 ca 3c
       -0.015733596 -0.0012647945 -0.041224476 0.024712166
000350 8d d8 d1 3b 9a 58 95 bc 8c 32 24 b8 c7 98 6d 3c
       0.0064039887 -0.018230725 -3.9147722e-05 0.014501757
000360 7a 52 78 bc 09 9f c9 bc fd e3 14 bb e9 dc d5 bc
       -0.015156383 -0.024611967 -0.00227189 -0.026106315
000370 cb df 1d 3d 97 f7 3d 3c f0 c7 ad 3b 1a 77 8b bc
       0.038543504 0.011594675 0.0053033754 -0.017024565
000380 33 0f 0f 3d e3 a3 7c bc 36 a7 16 3d 9f bb 9d bc
       0.034926604 -0.015419933 0.03678056 -0.019254504
000390 87 50 17 bd f5 11 18 bd ea f9 1c bb 2d f5 67 3a
       -0.03694203 -0.0371265 -0.0023952671 0.0008848485
0003a0 3d 29 3b bd 86 10 0e bd 5b 35 d9 bb 74 f4 ce 3c
       -0.045693625 -0.034683727 -0.006628675 0.025263049
0003b0 6a cc df 3c 91 6e 1a bc f5 b8 d9 3c 30 f6 96 bc
       0.027319152 -0.009425775 0.026577452 -0.018427938
0003c0 b7 be d5 3c c2 2f 86 3c f9 9a b3 3c a1 0d ea bc
       0.026091916 0.016380195 0.021924483 -0.028570952
0003d0 60 34 b0 ba d0 10 df bb 1d 42 43 bd 89 19 27 37
       -0.0013443343 -0.006807424 -0.047670472 9.959921e-06
0003e0 a6 4a fa bc 3a ab ef 3c 80 e5 0e 3c 1d e7 97 bb
       -0.030553173 0.029256452 0.008721709 -0.004635705
0003f0 95 ef 8f bc 07 b4 82 bc 07 a0 d3 bb 1d c6 ed 3c
       -0.017570296 -0.015954984 -0.0064582857 0.029025132

0.fc1.bias f4 [120]
000000 b9 2e f1 3a 77 fb e9 3b 3a f2 a7 bb 2f 5f ac 3c
       0.0018400765 0.0071405726 -0.005125311 0.02104148
000010 a0 01 10 bd c4 5a 4b 3d 75 cb c1 bb fe e1 b4 3c
       -0.0351578 0.049647108 -0.0059141465 0.022080418
000020 57 c8 f2 3c db a3 59 bc 38 23 27 3d 15 2f 13 3c
       0.029636545 -0.013283695 0.04080507 0.008983393
000030 7f 36 55 3c 4d c7 d5 3b 35 06 fc 3c 6e 6d 3e bd
       0.013013481 0.0065240026 0.030764678 -0.04649108
000040 22 81 93 3c c0 3f 25 3d 37 33 66 bc b7 c5 cf bc
       0.018005911 0.040344 -0.0140502965 -0.025362832
000050 89 5a ce bb 6e dd d2 bc 26 a2 f3 3c a3 a5 0f 3d
       -0.0062974137 -0.025740352 0.029740404 0.035070073
000060 70 d2 05 bd 19 10 6e 3d 78 dd 16 3a c5 b1 19 3d
       -0.032671392 0.05812082 0.00057550473 0.03752305
000070 e6 c1 0d bc 0c 2d d4 bc d9 3e b9 3a e8 99 b0 3b
       -0.008652186 -0.025900386 0.001413311 0.005389441
000080 16 6f 22 bd fa a0 b1 3c f5 dd 80 bc d2 b5 91 3c
       -0.03965672 0.021683205 -0.015730837 0.017786894
000090 a1 cb a9 3c f8 66 d8 bc 61 37 dc bc 22 1e 17 bc
       0.02072698 -0.026416287 -0.026881875 -0.009223493
0000a0 df 03 21 bd cb f9 fa 3b 40 72 d9 bc f5 44 2b 3d
       -0.039310332 0.007659172 -0.026543736 0.04181381
0000b0 e6 20 1f ba dc 81 10 3d 8b 7f 2b 3c ea fc 2b 3d
       -0.0006070271 0.035280094 0.01046742 0.041989245
0000c0 48 ad a3 bc 5d 1f fc 3c 99 a6 30 3d 76 23 03 3d
       -0.019980088 0.030776674 0.04312763 0.03201624
0000d0 ca 22 a4 bc 1b 93 de 3c 84 e3 ee 3b 57 55 1f bd
       -0.02003612 0.027169755 0.0072903056 -0.038899746
0000e0 93 5e 72 ba 13 6f e2 bc da dd b9 bc f0 3c 23 3d
       -0.000924566 -0.027640855 -0.022688795 0.039853036
0000f0 10 82 a7 bc 5d f9 14 3d b2 8f 08 3c af 08 00 3d
       -0.02044776 0.036370624 0.008335041 0.03125828
000100 1b df 04 bd bd 69 12 3d b0 e7 fc bc d8 b4 da bc
       -0.032439332 0.03574537 -0.030872196 -0.026697561
000110 d6 52 d2 3c 78 fd 69 bc 49 81 41 bd fb 20 9d 3a
       0.025674265 -0.014281623 -0.047242437 0.0011987978
000120 2a e4 81 3c 44 38 19 3d 4e 31 50 ba d8 79 d1 3b
       0.015855867 0.037407175 -0.0007941917 0.0063926987
000130 48 7d 02 bc 8e be dd 3c ce 4f 97 bc d6 41 3c 3c
       -0.00796444 0.027068403 -0.018470671 0.011490306
000140 64 c9 d1 3c 3f 7c 49 bd 96 57 2b 3c 8d 80 67 3b
       0.025608726 -0.049190756 0.010457894 0.0035324425
000150 5d 25 23 3d 84 67 d2 bc f6 c6 63 bc 0d a4 18 3d
       0.039830554 -0.025684126 -0.013902416 0.037265826
000160 9c 36 0c 3d da 4f 00 3d 51 7f d5 bb f5 2c af bc
       0.034231767 0.031326152 -0.0065154214 -0.021383742
000170 63 af e4 3c 74 8b c9 bc 73 b0 ee 3c c0 b9 7d 3c
       0.027915662 -0.02460263 0.029136872 0.015486181
000180 b1 21 98 3b 80 d3 62 3b 06 f6 00 ba cc f4 d0 bc
       0.004642688 0.0034610927 -0.0004919473 -0.025507353
000190 9e 64 58 bc 6b 01 03 b9 da c9 e7 bc c3 92 c7 bb
       -0.013207583 -0.00012493662 -0.028294493 -0.0060904934
0001a0 aa 6b a6 bc ac 72 f9 bc 0b 82 ef 3c 04 4d 0d bd
       -0.02031501 -0.030450188 0.029236814 -0.034497276
0001b0 4d 8f ff 3c 2d bd 09 3d 36 62 ba bc 50 4e 57 bb
       0.03119626 0.033627678 -0.022751909 -0.0032853074
0001c0 08 a2 2f 3c e2 fd 1e bd 12 34 c3 3c 25 f7 2a 3c
       0.010719784 -0.03881634 0.02382854 0.0104349
0001d0 ed f5 18 3d bc 2d b8 bc 3a cd 20 bc b9 4e 01 3d
       0.037343908 -0.022482745 -0.009814555 0.031569216

0.fc2.weight f4 [84, 120]
000000 83 93 62 bd 16 04 74 bd e1 d0 74 3d fc 47 55 3d
       -0.05531646 -0.05957421 0.059769515 0.052070603
000010 8f 34 2e 3d 3b fa cc bd 86 91 a6 bd fe da 91 3d
       0.042530593 -0.10008665 -0.08133225 0.071218476
000020 09 84 d3 3c bf 5b 85 3d 70 bc f7 bc 75 6c 58 bd
       0.025819795 0.0651164 -0.030241221 -0.052837808
000030 fc c3 59 3d ff b2 9e bd e0 3f 3a 3c 0b 3f 8f bc
       0.05316542 -0.077489845 0.011367768 -0.017486116
000040 7d 0f 83 bc b1 18 21 3d 99 15 a1 3d 33 8c 1d 3c
       -0.015998596 0.03933019 0.078654476 0.009615946
000050 25 b3 98 bd d7 19 75 3c 1c a5 9d 3d ec 65 d6 bc
       -0.07456044 0.014959774 0.07697508 -0.026171647
000060 ac d0 e1 bc f4 c9 65 3c 64 3f 9e 3d 6c 3a 9e bd
       -0.027565323 0.0140252 0.077269346 -0.07725987
000070 e9 ae 55 3b 87 95 b8 3d 97 a9 09 bd 70 db c9 3b
       0.0032605475 0.09012895 -0.033609 0.006160192
000080 f9 2e a9 3d f4 e0 a3 3d 76 d2 81 bd 0c 24 4e bd
       0.082609124 0.08001891 -0.0633897 -0.050327346
000090 1a 6a c5 bd d0 61 ee 3b 44 e6 9e bd 5e 56 4c bd
       -0.09639378 0.0072748438 -0.077587634 -0.049887054
0000a0 00 99 83 3a 9b 5d be 3c 6b b8 aa bd b7 1b fa bb
       0.0010040104 0.023237994 -0.08335956 -0.0076326984
0000b0 26 40 c3 3c d3 1d 28 3c 3c bc b7 3d 66 c4 ce 3d
       0.0238343 0.010261017 0.0897145 0.10096054
0000c0 7d 4f 42 bd 28 77 1e 3d 81 ac 92 3d ae ac 93 bc
       -0.047439087 0.038687855 0.07161809 -0.018026676
0000d0 09 14 0d bd 74 67 e6 3b 38 59 aa bc ba 72 b0 3d
       -0.034442935 0.0070313755 -0.020794496 0.08615632
0000e0 3a a2 8f 3b 50 2f 47 bc 0c fe ba 3d 83 e3 eb ba
       0.0043833526 -0.012157276 0.09130487 -0.0017996881
0000f0 67 9b 00 3d f9 c8 a1 3c 55 fb 8c bd 84 7e 38 bc
       0.031398203 0.019749152 -0.06883875 -0.011260632
000100 de f5 6b 3d a0 8a 99 3d 12 64 27 bd 47 7d 8a bd
       0.057607524 0.07497144 -0.04086692 -0.06762176
000110 85 dd 4a ba d0 1d 96 bc 89 c5 96 bd 60 48 b9 3c
       -0.00077386975 -0.018324763 -0.073618956 0.022617519
000120 29 c1 80 bc ea c9 52 bd 93 30 66 3d 78 3c 7b 3c
       -0.015717106 -0.05146209 0.056198668 0.015334241
000130 a1 48 8e 3d 64 af a0 3d 6c 22 5b 3d 06 1a 8a 3d
       0.069474466 0.07845953 0.053499624 0.06743245
000140 74 15 9d bc 39 bc 29 bd d5 48 70 bc d1 83 1f bd
       -0.019175269 -0.04143927 -0.014665802 -0.03894407
000150 8c 7e 1a 3d 9b 7a 87 3d e0 de 8a 3d 89 5c bc 3d
       0.03771834 0.06615182 0.06780791 0.09197337
000160 6f 4a b1 3d 1f 1b 9e 3c fd 95 ad 3d 5e ee b1 bd
       0.08656775 0.019300042 0.084758736 -0.08688043
000170 96 98 8a 3d 2a 41 9d 3d c6 6c 5f 3d 10 30 2a 3d
       0.06767385 0.07678445 0.054547094 0.041549742
000180 c7 84 2a 3d 88 46 3a 3d ad a9 61 bd 0a ae 9c 3d
       0.041630533 0.04547742 -0.055093456 0.07650383
000190 bf ac cc 3d 57 d5 46 3d cb ee 8a 3d 37 32 23 3d
       0.09993886 0.0485433 0.067838274 0.03984281
0001a0 62 07 93 3d 29 e7 70 3d 57 df 99 bd a2 28 00 3d
       0.071791425 0.0588142 -0.07513302 0.03128875
0001b0 b2 ed 07 3a 4d b0 24 bd f3 34 ac 3d 72 81 c2 3d
       0.00051852607 -0.040207196 0.08408537 0.09497346
0001c0 d1 14 9c bd 3b 1f 4e 3d 80 04 ca 3b 39 3b a2 bd
       -0.07621158 0.050322752 0.006165087 -0.07921452
0001d0 9e 42 a0 3d 38 d1 ac bb 64 4b 4c bd c1 7d 91 3d
       0.07825206 -0.0052739643 -0.049876586 0.07104064
0001e0 ac 59 38 bd 25 3a d9 bd 58 37 2e 3d d8 d0 9c bd
       -0.045007393 -0.10606793 0.04253325 -0.07657021
0001f0 eb d3 98 3c a5 c6 b7 3d 44 21 6f bd 16 36 0e 3d
       0.018655738 0.08973435 -0.058381334 0.03471955
000200 b0 4b 2d 3d 39 6d 8e bc 94 1b c6 3c 15 34 89 3d
       0.04230851 -0.017386066 0.024183072 0.06699387
000210 7c fa 0b bd 18 c9 02 3b 30 94 ed bc 46 9d 51 bd
       -0.034174427 0.0019956287 -0.029001325 -0.05117538
000220 4c 0e f4 3c 42 06 c2 bd a4 e1 88 3d f9 61 7b bd
       0.029791974 -0.0947385 0.066836625 -0.06137273
000230 97 a1 9f 3d cf 1b 22 3d 16 b3 71 bd c9 72 69 bb
       0.07794493 0.0395773 -0.05900868 -0.0035621396
000240 03 48 a0 3d a4 7e ac bc af 0b 3f 3d b4 af f8 3c
       0.07826235 -0.02105648 0.046642 0.03035722
000250 04 3d 30 bd b3 d2 ff bc 00 47 07 bd 07 22 88 bd
       -0.04302694 -0.031228399 -0.033026695 -0.06647115
000260 3e c5 a2 bd 10 eb c6 bc 23 27 29 3b a4 52 87 bc
       -0.07947777 -0.024282008 0.002581068 -0.016518898
000270 b9 7a 9f bc f8 a8 1c 3d 74 9d df 3c ed 6d 82 3d
       -0.019467698 0.03824708 0.02729676 0.06368623
000280 14 9f 10 3d f4 33 5b 3c 81 65 b3 3d 6c 38 54 bc
       0.03530796 0.013379086 0.08759595 -0.012952905
000290 2e f2 86 3d 8f 00 5e bd 42 7e d3 3c a9 b5 a8 3d
       0.06589161 -0.05419975 0.02581704 0.08237774
0002a0 22 45 36 bd 06 a9 dc bd ad 93 4b 3d 3f b0 0e 3d
       -0.044499524 -0.10774426 0.04970138 0.03483605
0002b0 2a 6c b0 bc 06 79 c2 bc 77 5a 94 bd 5c 2b 09 3d
       -0.021535952 -0.02373935 -0.07243817 0.033488616
0002c0 ae 32 9d 3d 00 c0 0a ba 8e ea 81 3d 46 45 af bd
       0.07675682 -0.00052928925 0.06343566 -0.08558135
0002d0 d3 94 34 3c 2e 4c 98 bd d6 6f 35 bc 87 85 91 3d
       0.011021811 -0.07436405 -0.011074027 0.071055464
0002e0 96 6e b6 3d 84 9e dc bd 88 2d fc 3c f4 04 bd bc
       0.08907811 -0.10772422 0.03078343 -0.02307365
0002f0 7f d5 25 3d e0 c8 bc 3b a0 e6 92 bc fc b8 5b bd
       0.04048681 0.005761251 -0.017932236 -0.05364321
000300 33 02 30 bd 86 7c 74 bd 67 a9 5c 3d 18 fd 52 3d
       -0.042970847 -0.059689067 0.053872492 0.0515109
000310 36 d3 05 3e 02 7b 37 3c 12 f3 0d bd 71 85 8d 3c
       0.13068852 0.011198761 -0.034655638 0.017275544
000320 66 e0 0d 3d 86 dc 8a 3c 77 98 8e bd 42 41 6f bd
       0.03463783 0.016950857 -0.06962674 -0.058411844
000330 f4 e8 dc bc 2d c5 93 3d ef ba ab bd 22 76 14 bc
       -0.02696655 0.07215343 -0.08385264 -0.009061368
000340 0a a3 b9 bd 77 2f 81 bd 69 e0 83 bd 17 de e4 bc
       -0.090643 -0.06307881 -0.06439287 -0.027937932
000350 0f 4b 90 3d 38 92 3a 3d b9 a8 85 3d 2c f7 6a 3d
       0.07045566 0.0455496 0.06526322 0.057364628
000360 74 ad a9 bd 52 55 9f 3d 94 7f 27 bd 89 1c 4b bc
       -0.08285037 0.077799454 -0.040893152 -0.01239694
000370 97 0a 94 3d 21 18 21 bd 06 4b 02 bd ac 73 84 3c
       0.07228582 -0.03932965 -0.03180983 0.016168438
000380 e4 90 16 bd c9 e7 21 bd e8 d8 e1 bc 4c 41 4f 3d
       -0.036759272 -0.03952769 -0.02756925 0.05059938
000390 80 d6 77 3b 76 ea 4d 3d 30 38 f2 3b 61 1c 04 3d
       0.003781706 0.050272427 0.007391952 0.032253627
0003a0 3d a9 88 3d 18 fe 70 3c 10 b6 74 bd 3d 74 1e 3d
       0.06672905 0.014709018 -0.05974394 0.038685072
0003b0 24 c6 a2 3a d0 ab e0 3b 19 48 10 bc 03 08 e3 bc
       0.001241867 0.006856419 -0.008806252 -0.027713781
0003c0 40 97 13 bd d9 4a 39 3d c8 12 56 3d f7 51 85 bd
       -0.036032915 0.045237396 0.052264005 -0.06509774
0003d0 81 d3 e8 3a 57 69 e2 bd 83 6e 3a 3d e2 f0 4c bd
       0.0017763228 -0.11055248 0.04551555 -0.05003441
0003e0 7f 72 91 bd 48 21 df 3d 0d 3c 43 3d b9 56 48 3a
       -0.071019165 0.1089502 0.04766469 0.0007642317
0003f0 3c 72 49 3d b8 ea e4 3b a4 1c dd bc 0d fb ca bb
       0.049181208 0.0069859885 -0.026991196 -0.0061944784

0.fc2.bias f4 [84]
000000 ec dc 03 bd 5a 78 ac bd c4 8e a1 3d 72 61 97 bc
       -0.03219311 -0.08421393 0.078885585 -0.018479083
000010 35 fb 26 3d 71 68 89 3d b8 8f ae bd ae 53 01 3d
       0.040766913 0.06709374 -0.08523506 0.031573944
000020 60 e2 b3 3c 38 3c 4d 3d a3 83 7e 3d 44 3c 91 3d
       0.02195853 0.050106257 0.062137257 0.07091573
000030 48 eb ae bc 34 95 12 bd 32 e4 28 bd 59 2c 9c 3d
       -0.021352425 -0.035786822 -0.04123325 0.07625646
000040 8d 70 6d bc bb 1d 01 bd 0b 6e 29 bd 5e 90 39 bd
       -0.014492166 -0.031522494 -0.04136471 -0.045303695
000050 00 ab d2 bc 20 84 3c bd 33 f8 38 3d 58 69 81 bd
       -0.025716305 -0.04602444 0.045158576 -0.06318921
000060 bc ca 06 3d 1f 94 5e bd 00 a6 b9 3d 43 44 ca 3d
       0.032908186 -0.054340478 0.09064865 0.09876301
000070 75 4b 59 bc e0 89 c4 3b 44 2f 23 3c 90 aa 95 3d
       -0.013262619 0.0059978813 0.0099599995 0.07307923
000080 41 c7 a7 bc 9c 16 1f 3d eb e1 e1 bc c1 14 2a bd
       -0.020480754 0.03883992 -0.027573546 -0.0415237
000090 67 a6 20 bc 6a ff 7c bd db e0 cb bc 97 c7 00 bd
       -0.009805298 -0.06176702 -0.024887493 -0.031440344
0000a0 1d 30 9d bd f4 b8 22 3c de 8e 05 bd 16 97 c4 3c
       -0.076751925 0.009931792 -0.032606952 0.023997825
0000b0 77 97 16 3c 62 cc 03 bd 1a f7 1b bd f0 49 d7 bb
       0.0091913855 -0.032177337 -0.03807745 -0.0065700933
0000c0 e2 d9 7d bc 84 cc ac bc f5 d9 96 bd 00 b4 d1 3c
       -0.015493842 -0.021093614 -0.07365791 0.025598526
0000d0 73 18 91 bd 93 48 61 3d e9 09 a1 3d ce cd 81 3d
       -0.070847414 0.055000853 0.07863218 0.06338082
0000e0 4b 7d 15 bd 6b 2f ca bd 97 34 a6 bd 16 b9 4f bd
       -0.03649644 -0.098723255 -0.081154995 -0.05071362
0000f0 2c 22 2e 3d f8 05 7c 3d 7b d9 21 bd bb 30 99 3d
       0.042513058 0.06152913 -0.039514046 0.07479998
000100 1e 88 b3 3b 00 f7 9b bd e4 13 4b 3d c4 5a 10 bd
       0.005478873 -0.07615471 0.049579516 -0.03524281
000110 69 57 c3 bd 30 01 91 bd f0 d0 ae bd a2 71 3c 3c
       -0.095381565 -0.070803046 -0.085359454 0.011501702
000120 d5 ad 22 3c b3 64 f2 3b c7 4f 1f bc 9f 23 2e bc
       0.00992914 0.007397258 -0.00972361 -0.01062861
000130 cf 62 fe 3c 8d 5e 45 3d 0b ed 8d bd 3d cd 4a 3d
       0.031052975 0.048185874 -0.06929978 0.049512137
000140 30 ae 86 bd 3f 6b a3 bd 63 90 2d 3d 78 50 a0 3d
       -0.065761924 -0.0797944 0.042374026 0.07827848

0.fc3.weight f4 [2, 84]
000000 de 59 c1 3d e2 08 ed bd 47 2e 8c 3d 6a 40 43 3d
       0.09440969 -0.1157396 0.06844764 0.047668852
000010 a1 57 aa bd 32 d0 b0 3d 3f 31 79 3c 86 34 22 3b
       -0.08317495 0.0863346 0.015209495 0.0024750545
000020 94 3a d0 3d 0c 3e ad bd 9a 02 51 3d 71 73 a3 3d
       0.10167423 -0.084591 0.05102787 0.07981003
000030 60 c9 08 bc a9 4b 69 bd ae 5f c3 bd 63 10 f7 bd
       -0.008348793 -0.05695692 -0.09539734 -0.120636724
000040 86 b7 04 be e2 90 bf bc 69 1e 98 3c 23 2f 08 3c
       -0.12960634 -0.023384515 0.018569188 0.0083120195
000050 d8 e0 cb bc 63 b7 d4 3d 6d 3b 1d bd 55 bf 9d 3d
       -0.024887487 0.10386541 -0.03838675 0.07702509
000060 7d 1d 33 3d a9 b2 19 bd bb 24 a5 bd ef a0 62 3c
       0.043729294 -0.0375239 -0.080636464 0.013832315
000070 2b e5 5f bc ec 0e dc bd 89 76 28 bd c6 5d b7 bd
       -0.013665478 -0.107450336 -0.04112867 -0.08953433
000080 e8 95 cb bd 8a 5f e1 bd dc 94 2b bd 06 12 ac bd
       -0.09940702 -0.11004551 -0.04189001 -0.08401875
000090 e5 c5 a2 bd 41 1a 24 3d 45 f8 04 3d 48 c7 a7 bc
       -0.07947902 0.0400641 0.03246333 -0.020480767
0000a0 c9 90 d0 bc 64 5e dc 38 d4 e8 b5 bd 9b bf 7f 3d
       -0.025459664 0.00010507999 -0.08882299 0.06243859
0000b0 60 b4 b8 bd cf ac f0 bd 89 4d ec bd 61 0a e7 bd
       -0.09018779 -0.117517106 -0.11538226 -0.112812765
0000c0 02 12 c4 3d db 98 ab 3b 11 e0 00 3e d1 ce 82 3d
       0.09573747 0.0052367277 0.12585475 0.06387103
0000d0 7b 0f be bc 30 e9 55 bd 23 78 e5 bd 81 80 b7 3d
       -0.023200741 -0.052224338 -0.11204555 0.08960057
0000e0 9e 03 8b bd 2a 2f 3b bd ab bc 13 bd 3e 4e 92 bd
       -0.06787799 -0.045699276 -0.0360686 -0.0714383
0000f0 39 3d c5 bd 65 d8 47 bc 75 a5 d6 3c 21 6a c7 3d
       -0.09630818 -0.012197589 0.026201943 0.09737039
000100 ce 0a fb bd da c6 8f bb 80 b6 80 bd a9 c5 cd bd
       -0.1225792 -0.0043877186 -0.06284809 -0.10047466
000110 bb 0c 28 3d 60 37 4a 3c 54 13 78 bd cb 01 c1 3d
       0.041027766 0.012342304 -0.060565308 0.0942417
000120 87 a0 90 3c 90 03 c4 3d e4 73 10 bc 7f 03 45 bd
       0.01765467 0.09570992 -0.008816693 -0.048099037
000130 06 6f cf bd c3 8e e3 bc 2a d7 14 3d 62 25 97 3d
       -0.10128598 -0.027778035 0.03633801 0.07380177
000140 0a e5 68 bd 3e 7b c4 bc 50 73 93 bd 35 ed da 3d
       -0.056859054 -0.023984548 -0.071997285 0.10689775
000150 39 68 d3 bd 53 78 8a 3c 43 af a9 3c b8 9b 9d bd
       -0.10322613 0.016903078 0.020713454 -0.076957166
000160 ee 86 36 3d 6b c5 bb bd 4b f8 be 3d b0 f6 15 3d
       0.044562273 -0.09168514 0.09324702 0.036612213
000170 a7 a3 39 bc 00 a9 74 ba 47 6e 36 bd a3 b6 fd 3c
       -0.011330522 -0.0009333044 -0.044538762 0.030970877
000180 5e ce 7a 3d 7c 66 55 3c 4b bf d9 bd 2e 1b e3 3d
       0.061231963 0.013024922 -0.10632189 0.110891685
000190 e9 7c ee 3d 21 ad d6 bd c5 ba ff bc 19 12 69 3d
       0.116449185 -0.104822405 -0.031216988 0.056902025
0001a0 0c d0 b9 3c b7 01 cd 3c 3d 03 b6 3d ab 40 c6 3d
       0.022682212 0.025025232 0.088873364 0.09680303
0001b0 09 ce c5 3d 85 99 05 be 86 4f 92 3d b9 b9 b0 bd
       0.09658439 -0.13046844 0.07144074 -0.08629174
0001c0 08 9e 53 bc c4 ee 17 bd 7b 01 2e bc 2e 14 43 3d
       -0.012916096 -0.03709294 -0.01062047 0.047626667
0001d0 fa af 77 bc 75 7f d0 3c df a0 9c 3d 65 ca 73 bd
       -0.01511764 0.025451401 0.07647871 -0.05951919
0001e0 ed 47 9d bd 15 56 c1 3d 5d 7a ce bc 2f 16 87 3d
       -0.076797344 0.09440247 -0.025204832 0.06596028
0001f0 69 9b 45 3d f8 58 9a 3d 06 68 81 3d f6 b3 f8 bd
       0.048243914 0.07536501 0.06318669 -0.121437
000200 b5 9b 93 ba 2f 30 43 3d eb 5d ba 3c 28 ad 5e 3c
       -0.0011261614 0.047653373 0.022749862 0.013591088
000210 37 b3 03 3d 1b fe c8 bd 8d 62 89 3d e0 af 5d bc
       0.032153334 -0.09814092 0.0670825 -0.013530701
000220 70 d5 92 bd a6 7c 54 3d 7f 25 8a 3d eb 9c 64 bd
       -0.07169616 0.051876687 0.06745433 -0.05581371
000230 e3 3b 88 3d 36 03 be bd 4e d1 b5 3d c4 96 04 bd
       0.066520475 -0.09277956 0.08877812 -0.032370344
000240 b3 04 fa 3d 41 55 0e 3d d1 1d a7 bd 45 41 cd 3c
       0.122079276 0.034749273 -0.08159984 0.025055537
000250 86 cb 8a 3d d8 51 69 3d 00 8b 9e 3b 0d ab 66 3d
       0.067771 0.056962818 0.0048383474 0.05631547
000260 91 bc 44 3d e1 a5 3a bc d9 4b 15 bd 7e 3a c7 3c
       0.048031393 -0.011392088 -0.036449287 0.024319883
000270 75 b8 c6 3d 33 d1 9d bb a2 79 74 3d 9a be be 3b
       0.09703151 -0.0048161983 0.05968631 0.0058210613
000280 2f 71 6b bc 63 e7 7b 3d 20 9c 8c bd 9a 30 78 bd
       -0.014370247 0.061499964 -0.06865716 -0.060593225
000290 8d 03 43 bd 35 ac d1 3d 7f 03 87 3d 73 4e 9e bb
       -0.04761081 0.10237924 0.06592464 -0.004831129

0.fc3.bias f4 [2]
000000 1e c2 88 bd 11 dd 3f bd
       -0.0667765 -0.046841685

onnx::Conv_38 f4 [6, 1, 3, 3]
000000 77 82 85 bf d2 de 51 3e c3 85 82 be eb 86 b4 3f
       -1.043044 0.20495155 -0.25492677 1.4103674
000010 ca 2a 13 3f b3 04 07 bf b0 88 6c bf 61 d8 ca bf
       0.57487166 -0.52741545 -0.9239607 -1.5847284
000020 4e 92 94 3e bd 3e b9 3e b3 2a d5 3e 49 01 c7 bd
       0.29017872 0.36180678 0.4163414 -0.09717042
000030 f3 a2 06 bf a2 ff 21 bf 7f bd 0e bf 5c 33 d5 be
       -0.5259239 -0.6328069 -0.557579 -0.41640747
000040 4b 87 16 be a9 f0 2e be cf 5b e2 3d 85 3f a2 3f
       -0.14700048 -0.17083992 0.11052667 1.2675635
000050 2b c0 a1 3f b9 df 8a be da fc 4b 3c 32 f8 2a bf
       1.263677 -0.27123812 0.012450421 -0.66784966
000060 88 7a 5b bf 83 6c 63 bf 46 7d b9 3f 25 12 92 bf
       -0.8573384 -0.8883745 1.4491355 -1.1411787
000070 b7 ec a3 bf ab 3e 3d 3e 07 fd 2c 3f 76 1e 49 3f
       -1.2806615 0.18480937 0.6757359 0.78562105
000080 4a 73 3d bf 93 c8 d8 3f 80 f0 1d bf 08 e9 d5 3f
       -0.7400404 1.693621 -0.616951 1.671174
000090 5f 6a ad be ac d1 9e be c7 92 15 3f c6 1f 0e bf
       -0.33870217 -0.31019342 0.5842709 -0.5551723
0000a0 5b fc 53 3e 8e ce 86 3e 05 c7 03 bf 92 0a 0b bf
       0.20701735 0.26329464 -0.51475555 -0.54313004
0000b0 ba b4 05 bf 41 04 75 3f 93 be 57 bf 5e 5f 67 3f
       -0.5222889 0.95709616 -0.8427517 0.90379894
0000c0 df d3 40 bf 54 71 6b 3e a1 57 93 3e c1 53 28 3f
       -0.7532329 0.2299245 0.28777793 0.657528
0000d0 36 c6 b6 3e a1 9f 8d 3d
       0.35698098 0.069152124

onnx::Conv_39 f4 [6]
000000 fc c4 b9 be 43 46 af be d5 e1 98 3e 49 8a 82 3e
       -0.362831 -0.34233293 0.29859796 0.25496128
000010 4e c3 ab be ef 73 c4 3e
       -0.33547443 0.383697

onnx::Conv_41 f4 [16, 6, 3, 3]
000000 e1 89 b3 3e 23 b9 51 3d f3 4e c3 3e 7f 10 9d be
       0.3506613 0.05120195 0.3814617 -0.30676648
000010 dc 5f bb be 9d 82 ce 3d ba 6a 00 3f e4 cd d5 3e
       -0.36596572 0.10083506 0.5016285 0.41758645
000020 95 ee 9c be be 66 4a 3d 73 00 ab 3e 4c 29 aa be
       -0.30650774 0.04941439 0.3339878 -0.33234632
000030 47 e3 ba 3e 89 c2 26 3e 02 12 e5 be 2f 19 7c be
       0.36501524 0.16285147 -0.447403 -0.24618982
000040 41 b3 69 bd 52 50 29 be 8d ed f6 3e d5 14 fb 3e
       -0.057055715 -0.16534546 0.48228112 0.4903933
000050 2d 3c e9 3e e3 d8 54 be 71 9b 7d bd 5b 36 bb 3e
       0.45553723 -0.2078586 -0.06191582 0.36564907
000060 ca 21 7c 3d c1 05 da 3e f5 67 23 be 35 b5 3f 3e
       0.06155566 0.42582515 -0.15957625 0.18721469
000070 ce fe 8d be d5 e5 86 be 83 30 8f 3d 26 35 58 3e
       -0.27733463 -0.26347223 0.06991675 0.21114025
000080 39 77 a9 3e c9 c8 c2 be fa 49 3d 3e bb 18 52 3e
       0.33098772 -0.38043812 0.18485251 0.20517246
000090 f2 09 e5 be 5a 8b 85 be 2d 3e aa bd c9 fb 83 3e
       -0.4473415 -0.2608288 -0.0831264 0.25778034
0000a0 31 63 65 be 61 59 a4 be d9 0e ce 3e 9f 13 d0 be
       -0.2240112 -0.3209944 0.40245703 -0.4063997
0000b0 3b f6 1f 3e 86 e9 db be b6 0d 76 be 0e 88 70 be
       0.15621273 -0.42951602 -0.24028668 -0.234894
0000c0 0d ad 73 3e a5 13 2b be 8a da 39 be 1e b5 a1 be
       0.23796482 -0.16706713 -0.18149772 -0.31583494
0000d0 1d 8f c3 3e 84 c7 c0 be cc 59 51 3e 79 28 a0 be
       0.38195124 -0.37652218 0.20444411 -0.31280878
0000e0 37 f1 5e 3e 67 d8 a3 be 7e 38 89 3e dd 24 59 3e
       0.21771704 -0.3200104 0.26800913 0.21205468
0000f0 b4 74 57 3e 4b f5 df 3d 02 39 85 3e a9 df 01 3e
       0.21040612 0.10935458 0.26020056 0.12682976
000100 5b 91 3b be 76 77 bd be 76 49 70 be 53 9f d1 bd
       -0.18317167 -0.37005204 -0.23465523 -0.10235467
000110 41 74 73 3e b7 25 78 bd 50 70 10 3e 9e dc 5c be
       0.23774816 -0.060582843 0.14105344 -0.21568534
000120 b0 f7 34 3c e5 2d 2b 3e b2 bb 2b 3e 23 14 95 bd
       0.011045381 0.16716726 0.16770819 -0.072792314
000130 7c a2 b7 3d 6d 86 39 3e 20 71 76 3e bf 1b b2 3e
       0.08966538 0.18117686 0.24066591 0.34786794
000140 54 a0 0d 3e 10 71 af 3c 0f d3 78 3e e5 36 c9 3d
       0.13830692 0.021416217 0.24299262 0.098249234
000150 01 1f 16 be 6a cb 28 3e ba 86 98 3e ba 73 3e 3e
       -0.14660265 0.16483846 0.29790288 0.18598834
000160 55 29 a9 bd 15 e6 89 3e ad 70 84 3e e2 8a 79 3e
       -0.082598366 0.2693335 0.25867215 0.24369386
000170 e5 b4 74 3e c9 36 90 3e 15 5e 4e 3e a6 e0 ed 3d
       0.23897131 0.28166798 0.20153077 0.11615114
000180 73 60 4c be 90 45 2a 3e a8 5f 81 be ce b2 92 bd
       -0.19958667 0.16628098 -0.25268292 -0.071630105
000190 a9 d0 30 be f1 9a 53 be f5 dd 62 bd 9d a5 71 be
       -0.17267098 -0.20664574 -0.055387456 -0.23598333
0001a0 80 8d 44 3d 72 31 89 3e 9e 4c 7c 3e 74 94 08 3e
       0.047986507 0.26795536 0.24638602 0.1333788
0001b0 bb 7e 43 3d b9 f9 f1 3e 82 e4 30 bf 51 ca 2c 3e
       0.04772828 0.47260836 -0.69098675 0.16874053
0001c0 5f d0 2f bf 5d 51 26 bf b2 ad 07 bd dd 83 34 3f
       -0.68677324 -0.649679 -0.033124633 0.7051371
0001d0 2f 3f 8d be 8a fe f4 be 51 06 21 3f 30 c3 8d 3e
       -0.27587268 -0.47850448 0.62900263 0.2768798
0001e0 de 8d 30 bf 41 06 45 3e d8 5b 56 3f 88 70 1e bf
       -0.6896647 0.19240667 0.8373389 -0.6189046
0001f0 de 95 8d 3e 25 4f 18 be 70 d2 13 3f 94 4c 0c bf
       0.27653402 -0.14873941 0.5774298 -0.5480435
000200 5a b9 ad 3e 07 70 a6 be ef d4 b4 be db b0 0e 3e
       0.33930475 -0.32507345 -0.35318705 0.13934653
000210 d0 bb 4d bf 74 0b b6 3d 7d e0 d3 3e fd 99 13 3f
       -0.80364704 0.08888903 0.41382208 0.5765684
000220 5f c2 42 bf 96 e2 74 be 11 f9 ee be 76 82 ce 3e
       -0.76077837 -0.2391456 -0.46674398 0.4033391
000230 51 0f 83 3d a7 ab 21 3f 9f 5a 43 be 3e 16 49 3f
       0.06399406 0.63152546 -0.19077538 0.78549564
000240 2f 8b 2e 3f 7c 8d fc be ae c5 05 bf 87 a1 c1 be
       0.6818113 -0.49326694 -0.5225476 -0.37818548
000250 e4 ef 57 bd bb ad 3a bd 71 e0 25 3f 8c 38 3b 3d
       -0.052719012 -0.04557584 0.64795595 0.045708224
000260 a7 5b 13 3f 27 3b 0c be 32 52 c5 be 35 44 32 3e
       0.57561725 -0.1369444 -0.38539273 0.17408831
000270 5c d7 cd 3d 98 85 b9 b9 01 ea 1c 3f 22 25 5d bf
       0.10050842 -0.00035385485 0.6129456 -0.86384785
000280 d0 29 38 3f 60 8d 37 be 3c 95 e3 3d 9e c8 30 be
       0.719388 -0.17925024 0.111124486 -0.1726403
000290 45 3b 39 be 3c 79 51 3e a8 24 2b 3d ba d5 28 3e
       -0.18089016 0.20456403 0.041783005 0.1648778
0002a0 e4 09 28 3d 91 b6 4f 3e df 07 8a bd 8a 96 81 3e
       0.041025057 0.20284487 -0.067397825 0.25310165
0002b0 3f 6e 35 be d1 a7 17 3e 9c 9f d8 3d e7 57 6c 3e
       -0.17717837 0.1481011 0.10577318 0.23080407
0002c0 cb 61 1c 3e c5 6a 65 3e 07 01 73 3d f7 90 3e be
       0.1527168 0.2240401 0.05932715 -0.18609987
0002d0 aa 2f b0 bd 9d 5f f1 3d fe 2b f8 3d c3 c3 11 3d
       -0.08602841 0.11785815 0.12117766 0.035587084
0002e0 b5 9b 4a bd b6 83 f3 3d 88 9d 85 be 66 68 5b bd
       -0.0494649 0.11890356 -0.2609675 -0.05356636
0002f0 47 f3 60 3e 1d d6 71 3d 3d d2 22 3e 54 11 8e bd
       0.21967803 0.059042085 0.15900512 -0.06936899
000300 88 5e 87 be b8 8a bc 3d 76 03 11 3e 09 81 45 3e
       -0.2643931 0.09206146 0.14161476 0.19287504
000310 af ea c6 bd 95 4f 1a 3e 5c 64 b2 bd 05 f1 cb bc
       -0.09712731 0.1506942 -0.08710548 -0.0248952
000320 5e 54 fb bd a1 ae 29 3e fb b3 64 bd ba 01 45 3e
       -0.12271951 0.16570522 -0.055835705 0.1923894
000330 8c fe 81 bd 00 1d 09 bd 1c 5e 37 bd 20 c1 25 bd
       -0.06347379 -0.033474922 -0.044767484 -0.04046738
000340 0e 70 a4 bc d7 6a 5b be 72 a7 38 be bb 96 55 be
       -0.020072963 -0.21427475 -0.18032625 -0.2085828
000350 2b 5a 18 bc 1c d1 fc bd aa 6b 63 be a4 db 1e be
       -0.0092988415 -0.12344572 -0.2220904 -0.15513474
000360 c5 35 02 3d a1 37 87 bd fb 0c ef bb 7a a7 fe bd
       0.03178956 -0.06602407 -0.0072952486 -0.12434287
000370 09 b8 1a 3e a0 45 98 bc 4f ff e4 3d f3 e0 9b 3c
       0.15109266 -0.018587887 0.11181509 0.019028163
000380 db 75 c7 bc 48 73 95 bd 55 3f 2c 3e 5a 3b a6 bd
       -0.02434819 -0.07297379 0.16821034 -0.08116789
000390 7a 05 22 3d a0 81 a1 3d 27 75 d2 3d 3d 88 ef bc
       0.039556004 0.07886052 0.10276251 -0.029239768
0003a0 4a e5 75 3d 29 a2 36 3e 3f 26 fc bd da 77 01 be
       0.06003312 0.17835297 -0.12311982 -0.12643376
0003b0 26 d5 1d 3e 60 c1 ce 3b 28 dd 0a be a5 e2 2c bd
       0.15413341 0.006309673 -0.13560927 -0.042208333
0003c0 c9 35 8a bd 38 43 11 be ae ee 79 bc df ea 1d 3d
       -0.0674854 -0.14185798 -0.01525466 0.03855407
0003d0 ea 1b 8d 3d a4 74 e3 bd 50 a8 48 3d 4b 12 5e be
       0.0689009 -0.11106232 0.04898864 -0.21686666
0003e0 90 1d 3e ba 26 a8 1c be 72 8e ee bd b3 03 c6 bd
       -0.000725233 -0.15298519 -0.11648263 -0.09668674
0003f0 41 12 00 3e 6e 40 b2 bd e8 90 c1 3d 42 53 58 3d
       0.12506963 -0.08703695 0.09451467 0.052813776

onnx::Conv_42 f4 [16]
000000 22 47 8e be 30 1b fc bf a3 51 00 3e 27 64 1e 3e
       -0.27788645 -1.9695797 0.12531142 0.15467893
000010 6f 86 f5 3e a9 27 95 bf a6 2a 03 c0 30 71 82 3d
       0.47954127 -1.1652728 -2.049478 0.06369245
000020 f5 60 85 bf 5e b1 71 3e 4c 88 5a 3f 16 f2 f0 3d
       -1.0420214 0.23602816 0.8536422 0.11764924
000030 e2 b9 9e 3f 56 9f e1 bd d3 4d e3 3e c7 b0 14 bd
       1.2400477 -0.11016719 0.44395313 -0.0363014
